BP_MLP_CNN/GoodResult/best-99.60.pth (torch, 610763 bytes, 40 tensors)

conv1.weight f4 [32, 1, 3, 3]
0	0xbe08add9	-0.13347568
1	0xbd151edb	-0.03640638
2	0x3e2023e1	0.15638687
3	0xbe001bce	-0.12510607
4	0x3c921318	0.01783137
5	0x3e5d0e05	0.2158738
6	0x3dba6cfb	0.091028176
7	0x3d6e4572	0.058171697
8	0x3e1452b0	0.14484668
9	0xbe51e8ea	-0.20499006
10	0xbd75ceef	-0.0600118
11	0xbcaf3382	-0.021386866
12	0xbe9fcfc9	-0.31213215
13	0xbe512d21	-0.20427372
14	0x3d46e2fe	0.04855632
15	0x3e8b2011	0.27172902
16	0x3dad391d	0.08458159
17	0x3e7acd81	0.24492456
18	0xbe9580a7	-0.29199716
19	0xbe973c6b	-0.29538283
20	0x3e8a7201	0.27040103
21	0xbe99e8f5	-0.30060545
22	0xbe932e3d	-0.28746215
23	0x3ac822fa	0.0015269213
24	0x3d0e7e2e	0.034788303
25	0x3e992824	0.29913437
26	0x3dfbd99b	0.12297364
27	0xbd843144	-0.06454709
28	0x3e5cc1ee	0.21558353
29	0xbdf49298	-0.11942023
30	0x3a927007	0.0011172303
31	0x3e934cd3	0.2876955
32	0xbe244e7a	-0.16045561
33	0xbdd37d5f	-0.10326647
34	0x3e98635b	0.29763302
35	0x3d8731f9	0.066013284
36	0xbe810e26	-0.25206107
37	0xbe696428	-0.22792113
38	0x3c41ffa2	0.011840733
39	0x3e5c4e3a	0.21514216
40	0x3d956c10	0.07296002
41	0xbdbe1275	-0.09280864
42	0xbe7b7ea4	-0.24560028
43	0x3e76e7f7	0.24111925
44	0x3e24c108	0.1608926
45	0x3ea1ed95	0.31626573
46	0x3e2ccdf3	0.16875438
47	0xbe550309	-0.20801939
48	0x3e310259	0.17286052
49	0x3ea3a7ac	0.3196386
50	0x3e118cb0	0.14213824
51	0xbeb01596	-0.3439147
52	0x3ea13a64	0.3148986
53	0x3e62cdb3	0.2214878
54	0x3e0ac650	0.13552213
55	0x3eae92ca	0.34096366
56	0x3ea8efbd	0.32995406
57	0x3d7417cf	0.05959302
58	0xbe2d5b54	-0.1692937
59	0xbe047f62	-0.12939218
60	0xbd2c261d	-0.042028535
61	0xbded20d3	-0.11578526
62	0xbe0f342a	-0.13984743
63	0x3e3a00ca	0.18164364
64	0x3db5cfb7	0.08877509
65	0xbe68c626	-0.22731838
66	0x3db1bfd4	0.086791664
67	0xbdb4bef3	-0.08825483
68	0x3e6a25ec	0.22866029
69	0x3e439e50	0.1910336
70	0x3e2cf069	0.16888584
71	0x3dd311d2	0.10306133
72	0x3d3d9df3	0.04629321
73	0x3dc364ac	0.09540686
74	0x3ccacc67	0.02475567
75	0xbe3c14df	-0.18367337
76	0xbe88cb5f	-0.2671766
77	0xbe4f7e47	-0.20263015
78	0xbd3d0282	-0.04614497
79	0x3ea9dac2	0.3317471
80	0x3e62c330	0.2214477
81	0x3ce09e8b	0.02741935
82	0xbd89218a	-0.0669585
83	0xbe9716bf	-0.2950954
84	0x3de21c3d	0.11040542
85	0xbe69003e	-0.22753999
86	0x3d8e6835	0.0695347
87	0xbe424882	-0.18972972
88	0x3e958745	0.29204765
89	0xbe38a326	-0.18030986
90	0xbd5dd03a	-0.05415366
91	0xbe8b1b86	-0.27169436
92	0xbe189f4c	-0.14904517
93	0x3d919b0c	0.07109651
94	0x3d7b300f	0.06132513
95	0x3d4d23a5	0.05008282
96	0x3ee47f68	0.44628453
97	0xbe1bc169	-0.15210499
98	0x3e9c9302	0.30580908
99	0x3c2d2451	0.010567741
100	0xbbb07194	-0.0053846333
101	0xbe084f6d	-0.13311549
102	0x3a95df07	0.0011434265
103	0x3afc6bad	0.0019258164
104	0x3dcb168e	0.09916411
105	0x3df3583f	0.11882066
106	0xbe57af6f	-0.21063016
107	0x3e0ed1ac	0.13947171
108	0x3d2b72c4	0.041857496
109	0xbdb634a7	-0.088967614
110	0xbe010ae4	-0.1260181
111	0x3e98d74d	0.2985176
112	0xbe1dd965	-0.1541496
113	0xbe75ea07	-0.24015056
114	0xbe0b5db2	-0.1360996
115	0xbe9ae06e	-0.3024935
116	0xbe897f2e	-0.26854843
117	0x3e9bea9e	0.30452436
118	0xbe839e69	-0.25706795
119	0x3ce61700	0.02808714
120	0xbc5951c9	-0.013264128
121	0xbe231921	-0.15927555
122	0x3e0f886d	0.14016886
123	0xbe6eca83	-0.2331944
124	0xbe0b60be	-0.13611123
125	0x3ec12c75	0.3772923
126	0xbe7a17c6	-0.24423131
127	0x3db68d08	0.08913618
128	0xbe75936a	-0.23982015
129	0xbe15ee7c	-0.14641756
130	0x3e9e10b6	0.30872124
131	0xbe813a1e	-0.25239652
132	0x3def194c	0.11674747
133	0xbd940ed3	-0.0722939
134	0xbe46fdf3	-0.19432811
135	0x3ea04235	0.31300512
136	0x3c7f2c6f	0.015574559
137	0xbdd11350	-0.10208762
138	0x3e374803	0.17898564
139	0x3c1cdf3a	0.009574706
140	0x3e8794f6	0.26480836
141	0xbe1cc7e9	-0.15310635
142	0xbea5c66d	-0.3237795
143	0xbc2ce5e5	-0.010552858
144	0x3c9853a7	0.018594576
145	0xbd5f5d27	-0.054532196
146	0xbe4c7acc	-0.19968718
147	0xbe6355b1	-0.22200657
148	0xbcfb5757	-0.030681295
149	0x3ebff7ca	0.37493736
150	0x3e597971	0.21237732
151	0x3e45aaf5	0.19303496
152	0xbe24eadd	-0.16105218
153	0xbe959ea4	-0.29222596
154	0x3d6738bc	0.05645059
155	0x3e01b99f	0.12668465
156	0xbe1d29ee	-0.15348026
157	0xbe741db9	-0.23839463
158	0xbe8f74b7	-0.28018734
159	0x3e64ca61	0.22342826
160	0xbe83d0a8	-0.2574513
161	0xbe23e7a5	-0.16006334
162	0x3d9b13c8	0.07572132
163	0xbcdf21e5	-0.027237842
164	0x3e8bc422	0.27298075
165	0x3d529290	0.051409304
166	0x3cd270a2	0.025688473
167	0x3e8e96e9	0.2784951
168	0xbe8bc8d8	-0.2730167
169	0x3e03b644	0.12862498
170	0x3e7a0e0a	0.24419418
171	0xbe6e45e1	-0.23268844
172	0xbe658891	-0.22415377
173	0x3d47859d	0.048711408
174	0x3e521b1b	0.20518152
175	0x3dcefa8a	0.1010638
176	0xbe95a8fc	-0.29230487
177	0x3e0cf270	0.13764358
178	0x3eaa0dc7	0.33213636
179	0x3cbe3fc9	0.023223775
180	0x3e8f0a1f	0.2793741
181	0xbe8958a2	-0.26825434
182	0xbe326ec5	-0.17425068
183	0xbd01853b	-0.0316212
184	0xbe8cc782	-0.27495962
185	0xbe186c33	-0.14885025
186	0x3ea402b9	0.32033327
187	0x3ea3d3f4	0.31997645
188	0x3c4be30c	0.012444269
189	0x3e9c6722	0.30547434
190	0x3e45ee04	0.19329077
191	0xbd2040b0	-0.03912419
192	0xbeadfadd	-0.33980456
193	0xbe267e59	-0.16259135
194	0xbda3d678	-0.07999891
195	0xbe93b0b2	-0.28845745
196	0x3dbefe15	0.09325806
197	0x3d002756	0.031287514
198	0xbe887210	-0.26649523
199	0x3ea38a49	0.3194144
200	0xbc7cebc5	-0.015437071
201	0xbe291bc1	-0.16514494
202	0x3e6b5ab4	0.22983819
203	0x3e61eea4	0.2206369
204	0xbeb676e5	-0.35637584
205	0x3e4f2258	0.20227945
206	0x3ea4dd30	0.32200003
207	0x3dcb35bd	0.09922359
208	0xbd3fb697	-0.04680499
209	0x3e839404	0.25698864
210	0x3e9eb626	0.30998343
211	0x3e1e19d9	0.15439548
212	0x3d17df5c	0.037078246
213	0xbead2aa2	-0.3382159
214	0xbdf36992	-0.1188537
215	0x3d942913	0.07234397
216	0xbe52a3b9	-0.20570268
217	0x3dda2381	0.10651303
218	0x3e6faf75	0.23406775
219	0xbe8943cb	-0.26809534
220	0x3d1adb42	0.037806757
221	0x3e81f617	0.25383064
222	0x3e7550f9	0.2395667
223	0xbe04c876	-0.12967095
224	0xbde27b9d	-0.110587336
225	0xbb8748f8	-0.0041285716
226	0x3e381019	0.17974891
227	0x3dc3d599	0.09562225
228	0xbe2cb335	-0.16865237
229	0x3ee14980	0.4400139
230	0x3e69faf5	0.22849639
231	0xbeb68963	-0.35651693
232	0xbea80c5c	-0.3282193
233	0x3d8b6d2e	0.06807934
234	0x3e75f1d7	0.24018036
235	0x3e1b0663	0.15139155
236	0x3deddc53	0.11614289
237	0x3e4e0cd1	0.20122077
238	0x3e0e1316	0.13874468
239	0x3e45e914	0.19327193
240	0xbd7688d0	-0.06018907
241	0xbe03cf46	-0.12872037
242	0x3cb99492	0.022653852
243	0xbe2dd47d	-0.16975589
244	0x3dbd2b75	0.092368044
245	0xbeb4e573	-0.35331306
246	0x3d8032dd	0.062597014
247	0xbdf1455a	-0.11780806
248	0xbe564b14	-0.20927078
249	0xbe9f8414	-0.31155455
250	0xbdd0a78e	-0.101882085
251	0x3e2b87a4	0.16750962
252	0xbe375b8b	-0.17906015
253	0xbdfcb70f	-0.12339603
254	0x3e564e39	0.20928277
255	0xbe8df58f	-0.2772641

conv1.bias f4 [32]
0	0x3de27de1	0.11059166
1	0x3e34084d	0.17581291
2	0xbe8380c8	-0.2568419
3	0xbe9e1b85	-0.3088037
4	0xbda7bb69	-0.081900425
5	0xbe244c64	-0.16044766
6	0xbeaa101b	-0.33215412
7	0xbc2fcb66	-0.010729646
8	0x3e021123	0.1270185
9	0x3d16367c	0.036673054
10	0x3e0e5e96	0.13903269
11	0xbddaf8a2	-0.10691954
12	0xbcfd7305	-0.030938635
13	0xbd87ff0c	-0.06640443
14	0xbe905b94	-0.2819487
15	0xbe931ccc	-0.28732908
16	0xbe589e5a	-0.21154156
17	0xbd8469c4	-0.06465486
18	0xbea36854	-0.31915534
19	0x3dbe9c53	0.0930716
20	0xbe601899	-0.21884383
21	0xbe24c3fc	-0.16090387
22	0xbe9a2d40	-0.30112648
23	0xbe66d65c	-0.22542709
24	0x3da5fcef	0.08104884
25	0xbe6230a5	-0.22088869
26	0x3e89c12e	0.26905197
27	0x3d6fb897	0.058525648
28	0xbd8b0984	-0.06788924
29	0x3dd2b2d7	0.10288017
30	0x3e30bf26	0.17260417
31	0x3e156579	0.1458949

conv2.weight f4 [32, 32, 3, 3]
0	0xbcfefe35	-0.031127075
1	0xbdbda78e	-0.09260474
2	0xbdb898da	-0.09013529
3	0xbdbcf1ff	-0.092258446
4	0xbd9f2207	-0.07770162
5	0xbd8f3221	-0.06991983
6	0xbdf12a33	-0.11775627
7	0x3c867901	0.016415121
8	0xbd406d92	-0.046979494
9	0x3c132a76	0.008982291
10	0x3d5238ac	0.051323578
11	0x3bbbe504	0.005734088
12	0xbd8bbbe0	-0.06822944
13	0xbc6cb392	-0.01444711
14	0xbd9e9b9b	-0.07744523
15	0x3a5f1396	0.00085096934
16	0x3d21931d	0.03944694
17	0x3d7d6ed3	0.06187327
18	0x3b44a232	0.0030003903
19	0x39ca8519	0.00038627608
20	0xbc9b6534	-0.018969156
21	0x3d0dba6b	0.03460161
22	0xbc0f7765	-0.008756493
23	0x3aebe207	0.0017996439
24	0xbc119849	-0.008886405
25	0x3d9212e8	0.07132512
26	0x3d03f3f3	0.03221507
27	0xbd1a5603	-0.037679683
28	0xbdaae2ef	-0.083440654
29	0xbd9473cf	-0.07248651
30	0xbdce84fb	-0.10083958
31	0xbdf4cd24	-0.1195319
32	0xbe08a6ff	-0.13344954
33	0xbd8fa261	-0.07013393
34	0xbe2a6439	-0.16639794
35	0xbd0b9e5f	-0.03408658
36	0xbd54973c	-0.05190204
37	0x3d090550	0.033452332
38	0x3d3fdb42	0.04683996
39	0x3cd87848	0.026424542
40	0xbd1489a0	-0.036264062
41	0xbd3dcb93	-0.04633672
42	0x3d817073	0.06320276
43	0xbc5a3b91	-0.013319866
44	0x3d4c6bc6	0.04990747
45	0xbd95a2dd	-0.07306454
46	0xbe10b13b	-0.14130108
47	0xbda00925	-0.07814244
48	0xbdd46b62	-0.10372044
49	0xbe3603c4	-0.17774874
50	0xbe229d17	-0.15880238
51	0xbdbed3c4	-0.09317735
52	0xbe3da3ef	-0.18519567
53	0xbdf4a9dc	-0.119464606
54	0xbc5befab	-0.0134238405
55	0xbc8fb82c	-0.017543875
56	0xbbbe69a4	-0.005810933
57	0xbd4ddcea	-0.05025951
58	0xbd18a6c7	-0.037268426
59	0x3c9c180d	0.019054437
60	0x3d2609cc	0.040536687
61	0x3db65d6f	0.0890454
62	0x3d9bd606	0.07609181
63	0xbdb6484e	-0.0890051
64	0xbd241698	-0.04006061
65	0xbcd0864a	-0.025454659
66	0xbd95dd78	-0.073176324
67	0xbcca8c8a	-0.024725217
68	0xbd9db6e9	-0.07700903
69	0x3d253c03	0.040340435
70	0xbde61ff2	-0.11236562
71	0xbd1eb08a	-0.03874258
72	0x3d363f30	0.044493854
73	0xbd0b383f	-0.033989187
74	0x3da593ea	0.08084853
75	0xbdc8cb03	-0.098043464
76	0x3c878544	0.016543038
77	0xbdfb128c	-0.12259397
78	0x3d38fc47	0.045162465
79	0x3d1383f4	0.036014512
80	0x3ddc4235	0.107548155
81	0xbc9d8588	-0.019228712
82	0xbad58096	-0.0016288932
83	0x3da61b96	0.0811073
84	0x3cc5a0d8	0.024124548
85	0x3d75ab63	0.0599779
86	0xbce6fd07	-0.028196825
87	0x3dcec16e	0.100954875
88	0xbd22a11e	-0.039704435
89	0x3d8a2d8c	0.067469686
90	0xbcbf484e	-0.023349907
91	0x3c1d3d70	0.009597167
92	0xbba6c221	-0.00508906
93	0x3d3c7166	0.046006583
94	0xbd87568e	-0.06608306
95	0x3c2f585d	0.01070222
96	0x3cd9a046	0.026565682
97	0x3ca3cc11	0.019994767
98	0xbdd0e132	-0.101992026
99	0xbc82a332	-0.015946958
100	0xbd04ccd9	-0.03242192
101	0xbc075b70	-0.0082615465
102	0x3d30a25f	0.0431236
103	0xbd7fe03f	-0.062469717
104	0xbd79924b	-0.06093053
105	0x3d7e1a9d	0.0620371
106	0xbca29c49	-0.019849913
107	0xbca1b4e4	-0.019739576
108	0xbd09184c	-0.033470437
109	0x3d1f445f	0.038883563
110	0x3d35a1c7	0.044343736
111	0x3d151b05	0.03640272
112	0x39a418d9	0.0003129903
113	0x3a8a1be5	0.0010536878
114	0x3d93a21a	0.07208653
115	0x3d91134a	0.07083757
116	0x3ca7aa28	0.020466879
117	0xbc77d31c	-0.015126016
118	0x3b99518a	0.0046789097
119	0x3cf1ea9b	0.029530814
120	0xbcd53626	-0.026026797
121	0x3a99f8a6	0.0011747077
122	0xbc6756e6	-0.014119839
123	0x3d4bd361	0.049762134
124	0x3c4911b0	0.012272283
125	0xbd07376f	-0.03301185
126	0xbce59c5b	-0.028028658
127	0xbd10ccb6	-0.035351478
128	0x3d4a772f	0.04943007
129	0x3d63bac8	0.05559805
130	0x3d069723	0.03285898
131	0x3ca7fc50	0.020506054
132	0x3cd69d07	0.026197923
133	0xbd70acd9	-0.05875859
134	0x3bcdf777	0.0062856036
135	0xbc7e25d6	-0.0155119505
136	0xbdca61b6	-0.09881918
137	0xbda95b6f	-0.08269393
138	0xbcb59fe8	-0.022170976
139	0x3d1a3681	0.037649635
140	0xbd43bb0f	-0.047785815
141	0xbc30d9a2	-0.010794075
142	0xbd4bc04a	-0.049743928
143	0x3baceb3b	0.005277065
144	0x3d8f69c2	0.070025936
145	0x3c445236	0.011982491
146	0x3d9cf433	0.07663765
147	0xbd738e0c	-0.05946164
148	0xbc5cc99a	-0.0134758
149	0x3d4ff0fc	0.05076693
150	0x3c70172b	0.014653961
151	0xbd9ef44c	-0.0776144
152	0x3b9f5554	0.004862467
153	0xbc1c826c	-0.009552579
154	0x3d56bea4	0.052427903
155	0xbd0307b3	-0.031989764
156	0x3d94b585	0.072611846
157	0x3c75ae94	0.014995236
158	0xbb63bc09	-0.003474953
159	0x3c9b4d61	0.018957796
160	0xbbf942aa	-0.007606824
161	0x3d7c4bc4	0.061595693
162	0xbd89a3b0	-0.06720674
163	0xbd761db2	-0.060086913
164	0xbdbc6891	-0.09199632
165	0xbd521bf0	-0.051296175
166	0xbdbc5978	-0.09196752
167	0xbdd9e9f3	-0.106403254
168	0xbdea266a	-0.11433108
169	0xbd428165	-0.04748668
170	0xbda7b18a	-0.0818816
171	0xbd90ce6a	-0.0707062
172	0xbd120261	-0.0356468
173	0x3bfba87e	0.007679998
174	0xbc635bcc	-0.013876867
175	0xbcf74260	-0.030183017
176	0xbd90eda3	-0.070765756
177	0xbdad177d	-0.08451746
178	0xbdfa3c24	-0.12218502
179	0x3c0f8622	0.008760007
180	0x3c1fef03	0.009761575
181	0xbd7d1823	-0.061790597
182	0xbc8b8c23	-0.017034596
183	0xbc0148bb	-0.007890875
184	0xbbf0d19b	-0.0073492057
185	0xbb74fecc	-0.0037383316
186	0x3bf44b98	0.0074553005
187	0x3d0db860	0.03459966
188	0x3d5d1bc4	0.053981557
189	0x3d0de8e8	0.034645945
190	0xbd4b7f78	-0.04968211
191	0xbc0a3f07	-0.008437878
192	0xbd7d80ce	-0.061890416
193	0xbc9e559a	-0.019327927
194	0xbc76b71c	-0.015058305
195	0x3d98daed	0.07463632
196	0x3d640d78	0.055676907
197	0x3d9210d9	0.0713212
198	0x3aef2996	0.0018246647
199	0x3d0242f4	0.031802133
200	0xbd812ea0	-0.06307721
201	0xbd8fd3ba	-0.070228055
202	0xbdb38068	-0.08764726
203	0xbdd479e2	-0.1037481
204	0x3d377377	0.04478785
205	0x3bdeec20	0.0068030506
206	0xbd0fe0a6	-0.03512635
207	0xbde2feea	-0.11083777
208	0x3b5a31ed	0.0033293918
209	0xbc25b5e5	-0.010114168
210	0xbdc5c5a4	-0.096568376
211	0xbd4a9619	-0.04945955
212	0xbd80929d	-0.06277964
213	0xbba0a55f	-0.0049025263
214	0x3b9c617f	0.0047723646
215	0xbd8a7959	-0.067614265
216	0xbd28dd93	-0.041226935
217	0xbdec1fad	-0.11529479
218	0xbd9a1686	-0.07523827
219	0xbadefd1e	-0.0017012691
220	0xbd487995	-0.048944075
221	0xbd4e3e2a	-0.050352253
222	0xbdba35a6	-0.09092264
223	0x3d114a3d	0.03547119
224	0xbd9911a5	-0.074740686
225	0xb9e1b848	-0.00043052644
226	0xbd342be9	-0.04398719
227	0xbd6dfa5a	-0.058100082
228	0x3bcb5af0	0.006205909
229	0x3a39055f	0.00070579903
230	0xbb05fe1a	-0.0020445646
231	0x3aa413d2	0.0012518114
232	0xbb51e95c	-0.0032029962
233	0xbd399bc1	-0.045314554
234	0xbcf4e305	-0.029893408
235	0xbcfa1f14	-0.030532397
236	0xbe0516e8	-0.1299702
237	0xbdb782bd	-0.08960483
238	0xbd87f38c	-0.0663825
239	0xbd297b9f	-0.04137766
240	0xbd7e0eed	-0.062025953
241	0xbd184b49	-0.037181173
242	0xbdbb5f8a	-0.09149082
243	0x3ce06fc4	0.027397044
244	0x3c4df7c5	0.01257128
245	0x3ca04aff	0.01956701
246	0x3d760371	0.060061876
247	0xbc189558	-0.00931295
248	0x3c8f62e9	0.017503219
249	0x3d3b09a6	0.0456635
250	0x3d271abb	0.040796977
251	0x3d6fc4f9	0.058537457
252	0x3c9604f2	0.018312905
253	0x3cfbca36	0.03073607
254	0x3cb8d38a	0.022561807
255	0xbd3f743e	-0.046741717

conv2.bias f4 [32]
0	0x3a3cedcd	0.0007207066
1	0xbd4a4b27	-0.049388077
2	0xbd48d52c	-0.04903142
3	0x3d925383	0.07144835
4	0xbcc85e54	-0.024459042
5	0xbca0caab	-0.01962789
6	0xbd9e67b6	-0.07734625
7	0xbc0e5b13	-0.008688706
8	0x3c5d0328	0.013489522
9	0xbd282922	-0.041054852
10	0x3ce02154	0.027359642
11	0xbd4920c0	-0.0491035
12	0x3c6dce08	0.014514454
13	0x3be140f3	0.0068741976
14	0xbc5169c4	-0.012781564
15	0x3c9fe306	0.019517433
16	0xbd91413e	-0.07092522
17	0xbcb5c6ee	-0.022189584
18	0xbd28c704	-0.04120542
19	0xbd6808f4	-0.056649163
20	0xbcb64de7	-0.022253944
21	0xbd7cbe66	-0.061705016
22	0x3d0d6551	0.03452045
23	0xbb78178a	-0.0037855827
24	0xbccce334	-0.025010683
25	0xbcb4a22c	-0.022049986
26	0xbd0f0343	-0.03491522
27	0x3cc13430	0.023584455
28	0x3c356b4f	0.011072948
29	0xbcdb0afe	-0.02673864
30	0xbca0dc7f	-0.01963639
31	0xbd15dfb9	-0.03659031

conv3.weight f4 [64, 32, 3, 3]
0	0x3d8c3e44	0.06847814
1	0x3ada9ab1	0.0016678182
2	0xbcd529df	-0.026020942
3	0x3d98ca3f	0.074604504
4	0x3cf9e4c2	0.030504588
5	0x3d446310	0.047946036
6	0x3d5258fa	0.051354386
7	0x3d262f06	0.04057219
8	0x3c96f011	0.01842502
9	0x3d50e177	0.05099627
10	0xbda6c3a9	-0.08142788
11	0xbe1002cd	-0.14063568
12	0xb98a31cf	-0.0002635852
13	0xbae834cf	-0.0017715933
14	0xbdf11148	-0.11770874
15	0x3da55f18	0.08074778
16	0x3d2ea163	0.04263438
17	0xbd4afbc6	-0.049556516
18	0xbca51b95	-0.020154754
19	0xbd8e3722	-0.069441095
20	0xbdb62b0b	-0.088949285
21	0xbb9a660a	-0.004711871
22	0xbc5d27ce	-0.01349826
23	0x3c553132	0.013012217
24	0xbd356233	-0.044283103
25	0x3cc3c294	0.023896493
26	0xbd2c4b19	-0.042063806
27	0xbdb847ea	-0.089980915
28	0xbce7a0e6	-0.028274965
29	0xbcc06a02	-0.023488048
30	0x3b1fa406	0.002435924
31	0xbd500cf5	-0.050793607
32	0xbdc5ed98	-0.09664458
33	0xbdaee28d	-0.08539305
34	0x3c81dccf	0.01585236
35	0xbc8a5d55	-0.016890207
36	0xbd6554c4	-0.055989042
37	0xbd29f324	-0.041491643
38	0x3bd1a830	0.0063982233
39	0xbda67b9f	-0.081290476
40	0x3ba0e3ea	0.004909982
41	0xbd9bbc85	-0.076043166
42	0xbd0049a6	-0.031320237
43	0xbd78b357	-0.060717907
44	0x3cdadbfb	0.026716223
45	0x3c01cfff	0.007923125
46	0x3d8923b1	0.06696261
47	0x3d92b34d	0.07163105
48	0x3d8b4194	0.067996174
49	0x3d5f35a4	0.054494515
50	0x3db24b67	0.08705788
51	0x3d3a6da8	0.045514733
52	0x3c614bee	0.013751013
53	0xbc0624a9	-0.008187451
54	0x3d6a2923	0.057168137
55	0xbce5e41b	-0.02806287
56	0x3c9921ff	0.018692968
57	0x3d9f670c	0.077833265
58	0x3cc9b2c0	0.024621367
59	0xbd2547e8	-0.04035178
60	0x3d29e02f	0.041473564
61	0x3d449431	0.04799289
62	0xbc72a651	-0.014810161
63	0x3c2a2ce7	0.010386682
64	0x3c123546	0.008923834
65	0xbcf5648d	-0.029955173
66	0x3cbe32e6	0.02321763
67	0xbc76a939	-0.015054994
68	0xbd23fc1c	-0.040035352
69	0x3cc55cff	0.024092196
70	0x39af76c3	0.00033467085
71	0xbcfe7dfe	-0.031065937
72	0xbdb69f63	-0.08917119
73	0xbdacf3db	-0.08444949
74	0xbdcc9851	-0.099899895
75	0xbd8af7ce	-0.06785546
76	0x3bdfa8e9	0.0068255556
77	0xbe07bbc1	-0.13255216
78	0xbd8b4cb7	-0.068017416
79	0xbd1dc46d	-0.038517404
80	0xbdcccd6e	-0.1000012
81	0xbd0ccc62	-0.034374602
82	0xbdaf265d	-0.08552239
83	0xbdfc29e0	-0.123126745
84	0xbca1125f	-0.01966208
85	0xbd231d0a	-0.039822616
86	0xbd8e9032	-0.06961097
87	0xbcd75edb	-0.026290348
88	0xbda32d57	-0.07967632
89	0xbd00d4f3	-0.031453084
90	0x3d65444b	0.055973332
91	0x3d0412dd	0.032244552
92	0x3c97ea08	0.018544212
93	0x3d4c10f1	0.049820844
94	0x3cfb8449	0.030702727
95	0x3ad7b38f	0.0016456711
96	0x3c870c4f	0.016485361
97	0x3bee72de	0.007276877
98	0x3cca0aaf	0.024663297
99	0xbcb725a6	-0.02235682
100	0xbd2b8538	-0.041875094
101	0xbaee9365	-0.0018201886
102	0xbe005106	-0.12530908
103	0xbdbb9345	-0.09158949
104	0x3cad9659	0.021189855
105	0xbdd84eb3	-0.10561886
106	0xbdffa273	-0.124821566
107	0xbca55cb2	-0.020185802
108	0x3bdead7c	0.0067955833
109	0x3d8998d8	0.06718606
110	0x3de23f63	0.11047246
111	0xbbf735ab	-0.0075442395
112	0xbd2a7195	-0.041612227
113	0x3c16cc2e	0.009203954
114	0x3cbedbda	0.023298193
115	0x3a3edd8a	0.00072809367
116	0x3d1ece8c	0.038771197
117	0x3d81af25	0.06332234
118	0x3b1c0d08	0.0023811478
119	0xbdf29aa1	-0.118458994
120	0x3d822dfa	0.063564256
121	0xbd0e8025	-0.034790177
122	0xbda5c6b1	-0.08094538
123	0xbca67a33	-0.020321941
124	0x3ccc8f8f	0.024970798
125	0xbddf6dd8	-0.10909623
126	0x3d9b4c57	0.0758292
127	0x3d8369ce	0.06416665
128	0xbd1e192a	-0.038598217
129	0x3d87fffa	0.066406205
130	0x3d794ea4	0.060866013
131	0x3c8f1d59	0.017470049
132	0x3d7db0d5	0.06193622
133	0x3d7f0054	0.062256172
134	0x3da4b522	0.08042361
135	0xbd039070	-0.03212017
136	0xbd4233e5	-0.04741277
137	0xbd4a676a	-0.04941503
138	0x3c11a6b6	0.008889845
139	0x3cb028c0	0.021503806
140	0x3d241df5	0.04006763
141	0x3b287a6b	0.0025707732
142	0x3cd2ee90	0.025748521
143	0x3cd77f50	0.026305825
144	0x3d359f0a	0.044341125
145	0xbd5da03f	-0.0541079
146	0xbdf44c7e	-0.11928652
147	0xbd7527b0	-0.059852302
148	0xbcd43e06	-0.025908481
149	0xbd75198d	-0.05983882
150	0xbd5b65f8	-0.05356404
151	0xbd95ed69	-0.07320673
152	0xbd8836c0	-0.06651068
153	0x3cb068d0	0.021534353
154	0x3daa8073	0.08325281
155	0x3dc122a8	0.09430438
156	0x3d9a4731	0.0753311
157	0xbc10e8c6	-0.00884456
158	0x3cb63769	0.022243218
159	0xbc476ece	-0.012172414
160	0xbb16898c	-0.0022970168
161	0x3cfc9605	0.030833254
162	0xbdf68c55	-0.12038485
163	0xbe16b99f	-0.14719246
164	0xbe1f79fe	-0.1557388
165	0xbd13ae4f	-0.036054906
166	0xbd6c15bc	-0.057637915
167	0xbe03b4ba	-0.1286191
168	0xbd891dfd	-0.06695173
169	0xbd732f87	-0.059371497
170	0x3c1a49c5	0.009417002
171	0xbd219911	-0.039452616
172	0xbb2c2b7a	-0.0026271031
173	0xba639d87	-0.0008682836
174	0x3c9bc04f	0.019012598
175	0xbd46661d	-0.048437227
176	0x3ccfb6a6	0.025355648
177	0x3db43abe	0.08800267
178	0xbb8ad445	-0.0042367303
179	0xbccac1f0	-0.02475068
180	0xbdbcf708	-0.09226805
181	0x3a92c20e	0.0011196749
182	0xbcff893e	-0.031193372
183	0xbccd581b	-0.025066426
184	0xbd8a8b60	-0.06764865
185	0xbd8857b2	-0.066573516
186	0x3c5b9b08	0.013403662
187	0xbb76f1de	-0.0037680785
188	0xbd54862f	-0.05188578
189	0xbc80d88e	-0.015728261
190	0xbb9f8177	-0.0048677283
191	0xbb86c5e7	-0.0041129473
192	0x3d1b48e4	0.03791131
193	0xbcbee232	-0.023301218
194	0xbd6c3784	-0.05767013
195	0x3dae49ea	0.08510192
196	0x3d0e250d	0.034703303
197	0x3d664aab	0.056223553
198	0x3bf82c7c	0.0075736623
199	0xbdadcaa6	-0.08485918
200	0xbe1917fc	-0.14950556
201	0xbda33b95	-0.07970349
202	0xbc479209	-0.012180814
203	0xbde97e90	-0.11401093
204	0x3c1ab58a	0.009442696
205	0x3d0a6df9	0.033796284
206	0x3cd421e3	0.025895065
207	0xbba64b25	-0.005074876
208	0xbc94454d	-0.018099451
209	0x3c0904d0	0.008362964
210	0x3d873e33	0.066036604
211	0xbcc9d3ba	-0.024637092
212	0x3c028b43	0.007967773
213	0x3dc23bd6	0.09484069
214	0xbd594121	-0.053040627
215	0xbd36b935	-0.04461022
216	0xbd8f42cc	-0.06995162
217	0xbd808531	-0.06275404
218	0xbdc1e290	-0.094670415
219	0x3ba881f4	0.0051424447
220	0xbca7311d	-0.020409161
221	0xbb6b3beb	-0.0035893868
222	0x3d92a118	0.071596324
223	0x3cdb50f0	0.026771992
224	0x3cc67417	0.024225278
225	0x3d22d0e3	0.03974999
226	0x3d5e7049	0.054306302
227	0x3e012c7f	0.1261463
228	0x3d2c9f76	0.04214426
229	0xbd5b035e	-0.053470008
230	0x3dc1f5a2	0.09470679
231	0x3c1c1bf1	0.009528146
232	0xbd7f9b05	-0.062403698
233	0x3c8359ab	0.016033968
234	0xbd07339d	-0.033008207
235	0xbe057ef4	-0.1303671
236	0xbe386f39	-0.18011178
237	0xbd30c853	-0.043159794
238	0xbd23f95f	-0.04003274
239	0xbdc9ef22	-0.09860064
240	0xbcb1d41f	-0.021707593
241	0x3cc334a7	0.023828818
242	0x3a5f7a64	0.00085250125
243	0xbd1cb580	-0.03825903
244	0xbd1af229	-0.0378286
245	0xbe3b5faf	-0.18298219
246	0xbd8e09d0	-0.06935465
247	0xbe02ef8c	-0.12786692
248	0xbe189941	-0.14902212
249	0xbdb5750e	-0.08860217
250	0xbd132169	-0.035920534
251	0xbd7f3acd	-0.062311936
252	0x3d77f262	0.06053389
253	0xbd2c8889	-0.042122398
254	0xbde32ffd	-0.110931374
255	0x3cfb4b5a	0.030675579

conv3.bias f4 [64]
0	0x3c771121	0.015079767
1	0xbce144a3	-0.027498549
2	0xbd09fbb0	-0.033687294
3	0xbd9a28e3	-0.0752733
4	0xbc3f2e85	-0.011668806
5	0x3c877770	0.016536444
6	0xbd26b0af	-0.040695842
7	0x3d305aa7	0.043055203
8	0x3cbf271c	0.023334078
9	0xbd93fe7b	-0.07226273
10	0x3bd89121	0.0066090976
11	0xbd9b0827	-0.07569914
12	0xbca81fb0	-0.020522922
13	0xbcaaa950	-0.020832688
14	0xbd152767	-0.03641453
15	0x3c9d6c9d	0.01921683
16	0xbc76e440	-0.0150690675
17	0x3aada6a0	0.0013248511
18	0x3d45b4bb	0.04826806
19	0xbd84083c	-0.06446883
20	0x3c2caad3	0.010538775
21	0xbccbe09b	-0.024887374
22	0xbd3a0840	-0.045418024
23	0x3c2a6846	0.010400837
24	0xbd0fdde9	-0.03512374
25	0x3d2bb41f	0.041919824
26	0xbc44aa3a	-0.012003476
27	0xbd03d8fe	-0.03218936
28	0xbd6f126a	-0.05836717
29	0xbd3aa7e5	-0.045570273
30	0x3cc7ef86	0.024406206
31	0x3d075163	0.0330366
32	0x3cdc1a5f	0.026868043
33	0x3d1dede0	0.038556933
34	0x3c7bab97	0.015360734
35	0xbd00d683	-0.031454574
36	0xbcf70c37	-0.030157192
37	0xbd45f4e0	-0.048329234
38	0x3b07bae7	0.0020710768
39	0x3d187803	0.037223827
40	0xbcdbde85	-0.026839504
41	0xbd333178	-0.04374835
42	0xbcf55e33	-0.029952144
43	0xbc3178ab	-0.010831992
44	0x3aa0afb4	0.0012259395
45	0xbd88c745	-0.06678633
46	0xbc8d93a8	-0.017282322
47	0x3c840b34	0.016118623
48	0x3bb25f8a	0.005443518
49	0xbc1e448e	-0.009659899
50	0x3c6f0841	0.01458937
51	0xbdc38a87	-0.09547906
52	0x3d02ec9b	0.031963926
53	0x3d04c051	0.03240997
54	0xbd411656	-0.04714044
55	0xbd27497d	-0.04084157
56	0xbc73bdeb	-0.014876823
57	0x3d05859e	0.03259813
58	0xbc8b34a6	-0.016992878
59	0xbcc001c6	-0.023438346
60	0x3cc6a976	0.024250727
61	0xbd50846b	-0.050907534
62	0xbd587810	-0.052848876
63	0x3cdc93f3	0.026926016

conv4.weight f4 [64, 64, 3, 3]
0	0x3c4173d4	0.011807401
1	0xbc1e9e03	-0.009681228
2	0xbbfa6f4f	-0.0076426635
3	0xbcd70376	-0.026246767
4	0xbcc941cb	-0.024567505
5	0xbbcd4f1f	-0.0062655355
6	0x3d29d749	0.041465078
7	0xbc828056	-0.015930336
8	0x3ad9e838	0.0016624993
9	0x3d505828	0.050865322
10	0x3d07f6b0	0.033194244
11	0xbd106e5f	-0.035261508
12	0x3ca4005d	0.020019704
13	0xbd27e980	-0.040994167
14	0xbd388307	-0.045046832
15	0x3d42e218	0.0475789
16	0xbcc00c1f	-0.02344328
17	0xbd33c3ed	-0.04388802
18	0xbe25f3c3	-0.16206269
19	0xbe5617cb	-0.20907514
20	0xbe45d420	-0.193192
21	0xbcc921c7	-0.02455224
22	0xbd630ae8	-0.055430323
23	0xbdafb6a2	-0.08579756
24	0x3cb508f7	0.022099001
25	0x3ce70453	0.028200304
26	0xbd764a14	-0.06012924
27	0x3d92c4bf	0.071664326
28	0x3d4df74f	0.05028468
29	0x3db1f51b	0.08689328
30	0x3cd2b742	0.02572215
31	0xbb3d1c47	-0.0028855966
32	0x3d3f700d	0.04673772
33	0x3d390587	0.045171287
34	0x3cf5f7b2	0.030025337
35	0x3d1e94d0	0.038716137
36	0xbdab552b	-0.08365854
37	0xbb80d532	-0.003931665
38	0xbc336f53	-0.010951835
39	0xbde31800	-0.11088562
40	0xbbe9e8d4	-0.007138351
41	0xbd432e26	-0.047651432
42	0xbde91195	-0.11380307
43	0xbd05320f	-0.032518443
44	0x3b9f4ef1	0.0048617055
45	0x3cfdc716	0.03097872
46	0xbb26416b	-0.0025368582
47	0x3d84f390	0.06491768
48	0xbc6e5652	-0.014546948
49	0xbd7ccf59	-0.06172118
50	0xbd2cb427	-0.042163994
51	0xbda396c0	-0.07987738
52	0xbdd4de65	-0.10393981
53	0xbdf98ab1	-0.121846564
54	0x3c9c08c2	0.019047145
55	0x3caf3bd9	0.021390842
56	0xbb25ac96	-0.0025279871
57	0xbdc93893	-0.09825244
58	0xbde7c40f	-0.11316692
59	0xbc5347b5	-0.012895514
60	0xbc75890b	-0.014986287
61	0xbce41df6	-0.027846318
62	0x3c1b0407	0.009461409
63	0xbd8f7f59	-0.070067115
64	0xbd9270f3	-0.071504496
65	0xbda3f381	-0.08005429
66	0xbcf524cb	-0.02992477
67	0xbd87f0bd	-0.06637714
68	0xbe140dda	-0.14458409
69	0xbd91bd96	-0.07116239
70	0xbdc690bb	-0.09695574
71	0xbdba9dfd	-0.09112165
72	0xbd15b5da	-0.03655038
73	0x3cf0ee72	0.029410575
74	0x3d936afc	0.0719814
75	0xbcf234d0	-0.029566199
76	0x3d017cdc	0.031613216
77	0x3c9b231a	0.018937636
78	0xbdc0c168	-0.09411889
79	0xbd97f620	-0.074199915
80	0xbdda5da8	-0.10662395
81	0x3dd64275	0.104618944
82	0x3d53ff28	0.051757008
83	0x3da48b82	0.080344215
84	0x3bef145e	0.007296129
85	0xbc99252e	-0.018694486
86	0x3d2ea049	0.04263333
87	0xbcbea9c2	-0.023274306
88	0xbc96c0c6	-0.018402468
89	0x3ccc48b1	0.024937006
90	0xbdcd018d	-0.100100614
91	0xbd6e6aa2	-0.05820716
92	0xbdcb9f0d	-0.09942446
93	0xbbe474b7	-0.0069719213
94	0x3cda1350	0.026620537
95	0xbd5c5a0e	-0.05379682
96	0x3db08f82	0.08621122
97	0x3dd4143f	0.10355424
98	0x3d9a05ce	0.075206384
99	0x3d9168fd	0.07100103
100	0x3d5038e8	0.05083552
101	0xbb09fa9b	-0.0021053914
102	0x3da6ee22	0.08150889
103	0x3cae0126	0.021240782
104	0x3cb09410	0.021554977
105	0x3cf848e2	0.03030819
106	0xbd54836e	-0.051883154
107	0xbcc91d5c	-0.024550132
108	0x3a69d39a	0.0008919776
109	0x3cfed5e5	0.031107852
110	0x3d79c9ab	0.06098334
111	0xbd373ea9	-0.04473749
112	0xbd0855b1	-0.033284847
113	0x3d05f827	0.03270736
114	0x3ce8c173	0.028412556
115	0x3bfe23a9	0.007755716
116	0xbd02942d	-0.031879593
117	0x3db984fb	0.09058567
118	0x3d2b7898	0.041863054
119	0x3daa89e8	0.08327085
120	0xbc947dd9	-0.018126415
121	0xbd192465	-0.037388224
122	0xbae7d972	-0.0017688705
123	0xbda552f1	-0.080724604
124	0xbd1a5849	-0.03768185
125	0xbda82275	-0.08209697
126	0x3d49f11c	0.049302205
127	0xbc02261c	-0.007943656
128	0x3c89e42d	0.016832436
129	0x3ce607cf	0.028079895
130	0xbb101f3b	-0.002199127
131	0xbb01beb1	-0.0019797499
132	0x3dea6bda	0.11446352
133	0x3d90c888	0.07069498
134	0x3d74ed4a	0.05979661
135	0x3d2263e4	0.039646044
136	0x3cd88b1c	0.02643352
137	0x3d4172bb	0.047228556
138	0xbd97a07a	-0.07403655
139	0xbd14aeed	-0.036299635
140	0xbd84c6b8	-0.06483215
141	0xbd8caf71	-0.068694
142	0xbdd705ae	-0.1049913
143	0xbcd7aad5	-0.026326576
144	0x3c798e1a	0.015231634
145	0x3d7d7586	0.061879657
146	0x3dc76c33	0.09737434
147	0xbd901222	-0.070347086
148	0xbb5921d9	-0.0033131747
149	0xbb3a9441	-0.0028469714
150	0xbda79be6	-0.08184032
151	0xbe21d21f	-0.15802811
152	0xbde013c7	-0.10941272
153	0xbc0965c9	-0.008386084
154	0xbc3f2fd9	-0.011669123
155	0xbad1e34c	-0.0016013174
156	0x3cc1acc7	0.023641957
157	0x3d0606cb	0.032721322
158	0xbd278f5c	-0.040908203
159	0x3d656672	0.056005903
160	0xbca02888	-0.019550577
161	0x3b29b5b2	0.0025895652
162	0xbdc2da0b	-0.09514245
163	0xbdc3c25b	-0.09558555
164	0xbe0810e9	-0.132877
165	0xbe1523d9	-0.14564456
166	0xbdff1791	-0.12455667
167	0xbd2cad8d	-0.0421577
168	0xbdae0177	-0.08496373
169	0x3c3a58cd	0.011373711
170	0x3bf3fb9d	0.007445766
171	0x3d1795c0	0.037008047
172	0x3d71d7b2	0.059043594
173	0x3c6f3225	0.014599358
174	0x3d13d4ce	0.03609162
175	0x3cb9ed5b	0.022696188
176	0xbc760d10	-0.015017763
177	0x3c792bf2	0.015208231
178	0x3bf716be	0.007540553
179	0xbcdc15d6	-0.026865881
180	0xbc1dc03b	-0.009628351
181	0x3a612e16	0.0008589936
182	0x3cfba7a0	0.030719578
183	0xbd8970b0	-0.067109466
184	0xbd803132	-0.06259383
185	0xbd100759	-0.035163257
186	0xbdfb544b	-0.12271937
187	0xbded9d81	-0.11602307
188	0xbdbc21f4	-0.091861635
189	0xbd95fb25	-0.07323293
190	0xbd1c069d	-0.038092244
191	0xbde789bd	-0.11305568
192	0xbbc74ca7	-0.0060821357
193	0xbdcd11a2	-0.10013129
194	0xbdd4d8be	-0.10392903
195	0xbd40935d	-0.047015537
196	0xbdb13c10	-0.08654034
197	0xbda1e523	-0.079050325
198	0xbb35f28a	-0.0027762973
199	0x3c3f86ba	0.011689836
200	0x3d0cbeed	0.03436177
201	0x3c74833d	0.014923868
202	0xbd71cb71	-0.059031907
203	0xbd2af99f	-0.041741963
204	0xbc678a76	-0.014132133
205	0xbd85523c	-0.065098256
206	0xbcc97f94	-0.024596967
207	0xbb53fa04	-0.0032345066
208	0xbd810b65	-0.063010015
209	0xbd572af7	-0.05253121
210	0xbd857a13	-0.065174244
211	0xbd2ddbd1	-0.04244596
212	0xbcdc816d	-0.026917184
213	0xbd5145dc	-0.051092014
214	0xbbf2207e	-0.0073891273
215	0xbd1659ef	-0.03670686
216	0x3d033330	0.032031238
217	0x3dbbd0b9	0.0917067
218	0xbc344df1	-0.011004911
219	0x3c5b32a9	0.013378778
220	0x3d86264e	0.06550275
221	0xbcc63728	-0.024196222
222	0x3c185fe4	0.009300206
223	0xbd9fc425	-0.078010835
224	0xbcb67780	-0.022273779
225	0xbe265d34	-0.16246492
226	0xbe652422	-0.22377065
227	0xbe24e3cd	-0.16102524
228	0xbe462de2	-0.1935344
229	0xbe0a703b	-0.13519375
230	0xbd88e650	-0.066845536
231	0xbdd6721a	-0.10470982
232	0xbd9c0734	-0.076185614
233	0xbd023be2	-0.03179539
234	0xbdba187a	-0.090867
235	0xbd8f0131	-0.06982649
236	0xbd6fec3f	-0.05857491
237	0x3d49d9ff	0.049280163
238	0x3c91ff9d	0.017822081
239	0x3b26669f	0.0025390757
240	0x3dd7b01c	0.10531637
241	0x3dfc1b65	0.123099126
242	0x3db0092b	0.08595499
243	0x396347b2	0.00021675116
244	0xbcceff89	-0.025268333
245	0xbdcf41fb	-0.10120007
246	0xbcd26c5a	-0.025686432
247	0x3cb5d6b2	0.022197101
248	0xbd4a34f0	-0.04936689
249	0xbd571a71	-0.05251545
250	0xbe11f4eb	-0.14253585
251	0xbdb49065	-0.088166036
252	0x3bbd167d	0.005770503
253	0xbd794a44	-0.06086184
254	0xbd647e60	-0.055784583
255	0x3d043de6	0.032285593

conv4.bias f4 [64]
0	0xbcc4c274	-0.024018504
1	0xbcfe4d79	-0.031042801
2	0x3b8a4eb6	0.004220809
3	0xbd828959	-0.06373853
4	0x3c857a9d	0.016293818
5	0x3cc3a962	0.023884479
6	0x3c85c7de	0.016330656
7	0x3d0604f6	0.032719575
8	0xbc5827da	-0.013193095
9	0x3b005b72	0.0019585756
10	0x3be9db6b	0.0071367524
11	0x3ca41db9	0.020033704
12	0xbce96e0a	-0.028494854
13	0xbd7b52ef	-0.06135839
14	0xbc3cc0bd	-0.011520562
15	0x3d0c5435	0.034259994
16	0xbd23d8b7	-0.040001597
17	0xbd54ecdf	-0.05198371
18	0xbc7f534c	-0.015583824
19	0xbcdbd065	-0.026832769
20	0x3cbfc446	0.02340902
21	0xbd378ab0	-0.044809997
22	0x3cbdcc9c	0.023168854
23	0xbbf83aba	-0.00757536
24	0x3c97d5d2	0.018534575
25	0x3da1d2a0	0.07901502
26	0xbc9184b4	-0.017763473
27	0xbd48ebaf	-0.04905289
28	0x3c4223e6	0.011849379
29	0x3ce4f5f7	0.027949316
30	0xbcdc5e8b	-0.02690055
31	0x3a9e4a0f	0.0012076515
32	0xbbb5e7c1	-0.005551309
33	0x3c6983b4	0.014252592
34	0xbb618690	-0.003441248
35	0x3d31ac45	0.04337718
36	0xbcf07278	-0.029351458
37	0xbc0b6847	-0.008508748
38	0x3d2d5008	0.042312652
39	0xbd2b679b	-0.041846853
40	0x3c9c06c0	0.019046187
41	0x3d153042	0.036422975
42	0xbc56881e	-0.013093976
43	0xbbecac8a	-0.0072227167
44	0x3c8865ea	0.016650159
45	0x3c32d832	0.010915803
46	0xbc83a56c	-0.01607009
47	0xbd202ba6	-0.039104126
48	0x3c863c60	0.01638621
49	0xbc858344	-0.016297944
50	0xbc994177	-0.018707974
51	0xbce0fbf5	-0.027463892
52	0xbd5d39db	-0.054010253
53	0xbc2424c9	-0.010018536
54	0x3d5b5f4a	0.05355767
55	0x3c2bbd8e	0.010482205
56	0xbc76cf04	-0.015064005
57	0xbd098376	-0.033572637
58	0x3d29d7e2	0.041465648
59	0x3cbeb552	0.02327982
60	0xbc00f5c7	-0.007871098
61	0xbcacd9c1	-0.021099927
62	0x3cd38f14	0.02582506
63	0x3bd7628a	0.006573026

linear1.weight f4 [120, 588]
0	0xba747540	-0.0009325333
1	0x3c0063e0	0.007836312
2	0xbc964488	-0.018343225
3	0x3ca030fc	0.019554608
4	0x3c38d39c	0.01128092
5	0x3caef43c	0.021356694
6	0xbc8c1922	-0.017101828
7	0xbd2557d4	-0.040366963
8	0xbd1c59bd	-0.03817152
9	0x3c30d454	0.0107928105
10	0x3cc33310	0.02382806
11	0xbc9c6bf2	-0.019094441
12	0x3d054926	0.032540463
13	0xbcef8e33	-0.02924261
14	0x3ce34934	0.027744867
15	0x3cff17bc	0.031139247
16	0xbad62fa0	-0.0016341098
17	0xbcf235fd	-0.02956676
18	0x3cf211d0	0.02954951
19	0x3c642150	0.013923958
20	0x3ca76aac	0.020436607
21	0xbc3479cc	-0.011015367
22	0x3bd65b80	0.0065416694
23	0x3b2d6500	0.0026457906
24	0x3c9e392a	0.019314367
25	0x3c0cd10c	0.0085947625
26	0xbcfc211a	-0.030777503
27	0x3c8223b4	0.015886165
28	0x3c9f9808	0.019481674
29	0xbd229376	-0.03969141
30	0xbd0e97b7	-0.034812655
31	0xbc42817e	-0.011871694
32	0x3aaeba40	0.0013330653
33	0x3cdc28e8	0.026874974
34	0xbd25a60b	-0.040441554
35	0x3bc452d8	0.005991321
36	0x3cbce100	0.023056507
37	0xbcfce434	-0.030870534
38	0x3c262dd4	0.010142762
39	0xbd1500ea	-0.036377825
40	0xbc8186b9	-0.015811311
41	0xbc7c9f0c	-0.015418779
42	0x3d2021fa	0.039094903
43	0x3cdb8a60	0.02679938
44	0x3c872336	0.016496282
45	0x3d025162	0.031815894
46	0xbb143da0	-0.002261974
47	0x3c4f42a4	0.012650166
48	0xbce415b6	-0.027842384
49	0xbca9573c	-0.02067148
50	0x3ce79530	0.02826938
51	0x3c7335d0	0.014844373
52	0x3c6c834c	0.0144356005
53	0xbcca550b	-0.024698755
54	0xbd16c4e8	-0.03680888
55	0x3cd112c8	0.02552165
56	0xbc33aef6	-0.010967007
57	0x3cce1cc0	0.025160193
58	0xbcd718b9	-0.026256906
59	0x3b7cef00	0.0038594604
60	0x3ca5caac	0.020238243
61	0xbbbdd870	-0.0057936236
62	0xbbb092f0	-0.00538861
63	0x3cfe1180	0.031014204
64	0x3d1ec086	0.038757823
65	0x3cd1b23c	0.025597684
66	0xbc8fdc84	-0.017561205
67	0xbcdc1cca	-0.026869196
68	0x3c1804f0	0.009278521
69	0xbc8e9c45	-0.0174085
70	0x3d1e31d2	0.03862173
71	0xbd0826a4	-0.033239976
72	0xbc129cf0	-0.00894855
73	0x3ca0c24a	0.019623894
74	0x3cad048e	0.021120336
75	0xbd0799dc	-0.033105716
76	0x3c169afc	0.009192225
77	0x3caf82e0	0.02142471
78	0xbc2c718c	-0.010525119
79	0xbc892dd1	-0.01674548
80	0xbb98d218	-0.004663717
81	0xbc8eeaf5	-0.01744602
82	0xbcd97a5a	-0.0265476
83	0x3c6e91b4	0.0145611055
84	0x3c8ddab6	0.017316204
85	0xbd105e38	-0.035246104
86	0x3caaa20c	0.020829223
87	0xbb5fbbe0	-0.0034139082
88	0x3ccfb33c	0.02535402
89	0x3bf9fc48	0.007628951
90	0xbb8597c0	-0.004076928
91	0xbc16d134	-0.009205151
92	0x3cc51c7c	0.024061434
93	0xbd20074f	-0.03906947
94	0xbb991c38	-0.0046725534
95	0xbc895c36	-0.016767602
96	0x3ceb6154	0.028732933
97	0xbcfe4e9b	-0.031043341
98	0xbc7eafac	-0.015544813
99	0x3d059fd6	0.032623135
100	0xbc9a0c0c	-0.018804573
101	0xbd022615	-0.0317746
102	0x3cb8ac1c	0.022543006
103	0x3ca1b9a2	0.019741837
104	0x3d17f716	0.037100874
105	0x3cf4dd10	0.029890567
106	0xbd028300	-0.031863213
107	0x3af3ae60	0.0018591397
108	0x3c80da0e	0.015728977
109	0xbb86c9e0	-0.004113421
110	0x3cbdd27c	0.023171656
111	0x3d17c1d6	0.03705009
112	0xbacb1d00	-0.0015496314
113	0x3be3b210	0.006948717
114	0x3d2011fe	0.03907966
115	0x3d1515ac	0.03639762
116	0x3d1aefa8	0.03782621
117	0xbd05382f	-0.032524284
118	0x3cf4c6a4	0.029879875
119	0xbca64483	-0.02029634
120	0x3b94c4e0	0.004540071
121	0xbcfd3f33	-0.030913925
122	0xbce8bf70	-0.028411597
123	0x3cf83024	0.030296393
124	0x3d1b6df0	0.03794664
125	0x3caae764	0.020862289
126	0xbd031417	-0.03200158
127	0x3d1dc582	0.038518436
128	0xbd1fa18a	-0.038972415
129	0x3d1c941a	0.03822718
130	0xbcf1bee1	-0.029509963
131	0xbd1d4392	-0.03839452
132	0x3c8689e8	0.01642318
133	0x3cc3ae7c	0.023886912
134	0xbcafc57c	-0.021456473
135	0xbd19d021	-0.037552003
136	0x3a4dc5c0	0.00078495964
137	0xbd0c1235	-0.03419705
138	0x3c80b128	0.015709475
139	0x3c58e86c	0.013239007
140	0xbafa51a0	-0.0019097812
141	0x3ceda7f8	0.029010758
142	0x3c783f38	0.015151791
143	0x3d046cac	0.0323302
144	0x3b459550	0.0030148812
145	0xbc9a1883	-0.018810516
146	0x3d1900f6	0.037354432
147	0xbd040426	-0.03223052
148	0x3c8ee0d2	0.017441187
149	0xbce10bee	-0.027471509
150	0x3d11575e	0.03548371
151	0xbc9f4b3b	-0.019445052
152	0x3ce864d0	0.028368384
153	0x3d081da8	0.033231407
154	0xbceb6fe0	-0.02873987
155	0xbd05c4f0	-0.032658517
156	0xbd10dd97	-0.035367575
157	0x3cc979fc	0.0245943
158	0xbca0f31e	-0.019647177
159	0xbc5bbdec	-0.01341198
160	0x3bee7c70	0.0072780177
161	0xbbde2128	-0.006778855
162	0x3c48cd90	0.012256041
163	0xb9f0f680	-0.00045960024
164	0xbcd72d60	-0.026266754
165	0x3c165118	0.009174608
166	0xbcdbac20	-0.026815474
167	0x3c7e9ba0	0.015540034
168	0xbd0a60f9	-0.033783887
169	0x3c1b5aa0	0.009482056
170	0x3c58c5d8	0.013230763
171	0x3c87c750	0.016574532
172	0xbc48dbc4	-0.012259427
173	0x3d1fa596	0.038976274
174	0x3d1ca334	0.03824158
175	0x3c6a5500	0.014302492
176	0xbd12ebf0	-0.03586954
177	0x3d1ad908	0.037804633
178	0xbcf17ae6	-0.029477548
179	0xba02db80	-0.00049918145
180	0xbc89bb5f	-0.016812978
181	0xbc479aa8	-0.012182869
182	0xb86e5800	-5.682558e-05
183	0xbccff8dd	-0.025387222
184	0xbd1d3ba9	-0.038386974
185	0xbc0c4d10	-0.008563295
186	0xbd1fda13	-0.03902633
187	0xbcf4f1ac	-0.029900394
188	0x3c94db6c	0.018171035
189	0xbd249c1d	-0.040187944
190	0x3d1396ea	0.036032595
191	0x3cd2abe8	0.025716737
192	0xbcf8b536	-0.030359846
193	0x3d02bbfc	0.031917557
194	0xbc03a0ec	-0.008033972
195	0xbad370c0	-0.0016131625
196	0x3c2e7e18	0.01065018
197	0x3be674c8	0.0070329644
198	0xbc8baa21	-0.017048897
199	0xbb4a7140	-0.0030890256
200	0x3cf28e90	0.029608995
201	0x3c9c7170	0.01909706
202	0xbce307ea	-0.027713735
203	0x3c63dbfc	0.013907429
204	0x3b138ad0	0.0022513159
205	0xbbf7f610	-0.0075671747
206	0x3c12b980	0.008955359
207	0xbc84b4ac	-0.016199432
208	0x3cb97648	0.022639409
209	0xbc316240	-0.010826647
210	0xbc9aabd1	-0.018880757
211	0xbd01f403	-0.03172685
212	0x3c4fe638	0.012689166
213	0x3cbf6c70	0.023367137
214	0xbc059e44	-0.008155409
215	0x3d0da66c	0.03458254
216	0x3c9f9b22	0.019483153
217	0x3d26e4ca	0.040745534
218	0x3cf668e4	0.030079313
219	0x3c4a2ad4	0.012339313
220	0x3b70e3c0	0.0036756843
221	0xbd20e4fc	-0.039280877
222	0x3d188b5a	0.03724227
223	0xbd20390b	-0.0391169
224	0xbc99edd1	-0.018790158
225	0x3b9e79f0	0.0048363134
226	0x3cfa38c4	0.030544646
227	0xbcae658d	-0.021288658
228	0x3d0d733e	0.03453373
229	0xbd209489	-0.039204154
230	0xbca4aa98	-0.020100877
231	0x3cba58a8	0.022747353
232	0x3c98d4c6	0.018656146
233	0xbc556cce	-0.013026429
234	0x3cce5cd0	0.02519074
235	0x3ca25670	0.019816607
236	0xbb9e13a0	-0.004824117
237	0xbd0b1a20	-0.03396046
238	0xbcc51cc9	-0.024061577
239	0x3bca14b0	0.006167017
240	0xbb934160	-0.0044938773
241	0xbcb73d03	-0.02236796
242	0x3c4aac50	0.012370184
243	0x3c359f40	0.011085331
244	0xbd1cef54	-0.03831418
245	0x3d1e4594	0.038640574
246	0xbbf5cf30	-0.0075015053
247	0x3ca686ee	0.020328011
248	0xba92a000	-0.00111866
249	0xbca04bc8	-0.019567385
250	0x3b0192f0	0.001977142
251	0xbcb490ec	-0.02204176
252	0x3cc5a130	0.024124712
253	0xbbc851f0	-0.0061132833
254	0x3b9c0110	0.004760869
255	0x39997280	0.00029267743

linear1.bias f4 [120]
0	0x3d267ebe	0.040648215
1	0xbc9e0a80	-0.019292116
2	0x3bf2ff28	0.007415671
3	0xb9014400	-0.0001232773
4	0x3cf6e990	0.030140668
5	0xbccdec79	-0.025137173
6	0xbc971cef	-0.018446414
7	0xbc848d10	-0.016180545
8	0xbc57bbc2	-0.013167324
9	0xbcde8666	-0.027163696
10	0x3c44e598	0.01201763
11	0xbccd2d79	-0.025046097
12	0x3c59d030	0.013294265
13	0xbc6eeacc	-0.014582347
14	0xbcecc331	-0.028901668
15	0x3cc2a068	0.023758128
16	0x3c7e5f8c	0.01552571
17	0x3b2863a0	0.0025694147
18	0x3c427574	0.011868823
19	0xbce1078f	-0.027469425
20	0x3d24fcb2	0.04028005
21	0xbbc61330	-0.006044768
22	0xbcd7e1f8	-0.026352867
23	0x3cf9a798	0.030475423
24	0x3c1d8b60	0.009615749
25	0xbd101a3e	-0.035181277
26	0x3cdad0bc	0.02671086
27	0xbc67b040	-0.014141142
28	0x3cf873c4	0.030328639
29	0x3ac4f9a0	0.0015028007
30	0xbd07c670	-0.03314823
31	0x3b440ce0	0.00299149
32	0x3cd4c424	0.025972433
33	0xbd12391c	-0.035698995
34	0xbb6a21e0	-0.0035725757
35	0x3cb4c310	0.02206567
36	0x3d0a943c	0.033832774
37	0x3c5403ec	0.012940388
38	0x3d14d222	0.03633321
39	0x3bd11230	0.006380342
40	0xbcd19c2a	-0.02558716
41	0x3d19a930	0.037514865
42	0x3ab17500	0.0013538897
43	0x3cb32510	0.021868259
44	0x3c9f58ec	0.019451581
45	0x3caafd64	0.02087278
46	0x3a089040	0.0005209483
47	0x3cd7b840	0.026332974
48	0x3c658964	0.014009807
49	0x3cf90ae4	0.0304007
50	0xbbf7f1f0	-0.007566683
51	0x3cdb4ccc	0.026770018
52	0xbd1ba2f2	-0.037997194
53	0xbbf3f028	-0.0074444003
54	0xbcccf727	-0.025020195
55	0x3ce5cfc8	0.02805318
56	0xbcf1d943	-0.029522544
57	0xbbd45898	-0.0064802878
58	0xbad0bf80	-0.0015926212
59	0x3cbf8174	0.023377158
60	0xbc237304	-0.009976152
61	0xbd1db273	-0.03850026
62	0x3cb34a50	0.02188602
63	0xbd0c95ca	-0.034322537
64	0x3c188448	0.009308882
65	0xbc442296	-0.011971137
66	0xbd173bf7	-0.03692242
67	0x3cba1468	0.022714809
68	0xbc0663ac	-0.008202475
69	0x3ba2ffe0	0.0049743503
70	0x3cbaec54	0.022817768
71	0x3ce85f68	0.028365806
72	0xbba84c88	-0.0051360764
73	0xbc392e4c	-0.011302542
74	0x3cd0f09c	0.025505356
75	0xbc893250	-0.016747624
76	0xbd22f5bb	-0.039785128
77	0xbd25142e	-0.040302448
78	0xbd1622d9	-0.036654327
79	0x3cce5968	0.025189117
80	0x3b90ee00	0.004422903
81	0xbc5dff1a	-0.0135495905
82	0xbccfb468	-0.02535458
83	0x3b9b0370	0.0047306344
84	0xbd19813c	-0.037476763
85	0x3d142bf8	0.036174744
86	0xbd196aaa	-0.03745524
87	0xbc3e2028	-0.011604346
88	0x3aa26f40	0.0012392774
89	0xbc1c2890	-0.009531155
90	0xbc855c6f	-0.016279427
91	0xbcd21bec	-0.02564808
92	0x3d25cb94	0.04047735
93	0x3c843efa	0.01614331
94	0xbd1fb7f3	-0.038993787
95	0x3c71c4c8	0.014756389
96	0xbc785b52	-0.015158491
97	0x3d09d2c2	0.03364826
98	0x3c50d768	0.012746669
99	0x3d20a778	0.03922221
100	0x3d11eee4	0.035628214
101	0x3d11b560	0.035573363
102	0xbd034bee	-0.032054834
103	0x3c91bd7e	0.017790552
104	0x3cc17b40	0.02361834
105	0xbd050038	-0.03247091
106	0xbcc510d1	-0.02405587
107	0xbc92982e	-0.01789483
108	0xbcac9b77	-0.021070225
109	0xbc4c0d8a	-0.0124544
110	0x3a205a40	0.0006116964
111	0xba803da0	-0.0009783991
112	0xbd142213	-0.03616531
113	0xbb111290	-0.0022136308
114	0xbb42ae60	-0.0029705986
115	0x3cca15cc	0.024668597
116	0x3cbaf240	0.022820592
117	0xbcde0f4d	-0.027106905
118	0x3c10c7b8	0.008836679
119	0x3d1e41e6	0.038637064

linear2.weight f4 [84, 120]
0	0xbd896eeb	-0.06710609
1	0x3b819c80	0.003955424
2	0x3c6d1df0	0.01447247
3	0x3cbe9d28	0.023268297
4	0xbcf8da8c	-0.030377649
5	0xbd0fada2	-0.0350777
6	0x3d0d07d0	0.03443128
7	0xbd7a6d56	-0.061139427
8	0xbc989754	-0.018626846
9	0x3cf5e0f4	0.030014493
10	0xbd92631d	-0.071478106
11	0xba7c9480	-0.00096351653
12	0x3d0277c2	0.03185249
13	0xbd830507	-0.06397443
14	0xbd1cbfbb	-0.038268786
15	0x3d8c2a2a	0.0684398
16	0xbc779058	-0.015110098
17	0xbccc23a0	-0.024919331
18	0xbd4cf54f	-0.050038632
19	0x3da1a1da	0.07892199
20	0x3d601af8	0.05471322
21	0xbc3cc7a0	-0.011522204
22	0x3d182b64	0.037150756
23	0xbda91c45	-0.08257345
24	0x3cfbd0e4	0.030739255
25	0xbd3db4be	-0.046314947
26	0x3d305348	0.043048173
27	0x3d536be8	0.05161658
28	0xbd32db6d	-0.043666292
29	0xbcf72ede	-0.030173715
30	0x3ce8e5a0	0.028429806
31	0x3d028bf6	0.03187176
32	0x3c1be830	0.009515807
33	0xbc8866fc	-0.01665067
34	0x3cb286ac	0.021792732
35	0x3cc51be4	0.02406115
36	0x3cfc20a0	0.030777276
37	0x3d20f4a0	0.039295793
38	0xbd242fe3	-0.04008473
39	0xbd923efb	-0.07140919
40	0xbce843a4	-0.028352566
41	0x3d20febc	0.039305434
42	0x3daca1c6	0.08429293
43	0x3dab697c	0.08369729
44	0xbce5aa9c	-0.028035454
45	0x3da32544	0.07966092
46	0xbd2f73bf	-0.042834993
47	0x3cea4fac	0.028602444
48	0xbd1e2570	-0.038609922
49	0xbd70e1a7	-0.05880895
50	0x3c7e4270	0.01551877
51	0x3d99f9b8	0.07518333
52	0x3d035940	0.032067537
53	0xbd846006	-0.064636275
54	0xbdacaee2	-0.08431794
55	0xbd00e303	-0.031466495
56	0x3d121f58	0.035674423
57	0xbd18e4f3	-0.037327718
58	0xbd99a279	-0.07501692
59	0x3d4063b8	0.0469701
60	0xbca84a38	-0.020543203
61	0xbd47d578	-0.048787564
62	0x3cfbdf10	0.030746013
63	0x3d84da8e	0.064869985
64	0xbd6e63b4	-0.058200553
65	0x3d9b502a	0.075836495
66	0xbcc36414	-0.023851432
67	0x3d9819f4	0.07426825
68	0x3d440c4c	0.04786329
69	0xbd89dea7	-0.06731921
70	0xbd8327a6	-0.06404047
71	0xbd8f2e69	-0.06991274
72	0x3d7582a4	0.05993904
73	0xbc933cc8	-0.017973319
74	0x3c9e04ac	0.019289337
75	0xbdae23a2	-0.0850289
76	0xbce1d19c	-0.02756577
77	0xbd8e6b87	-0.06954103
78	0x3d34dfdc	0.0441588
79	0xbd0eba61	-0.034845714
80	0x3cd34214	0.025788344
81	0xbd9d9db9	-0.07696099
82	0x3d432ec8	0.047652036
83	0x3c22ac08	0.009928711
84	0xbd3adf3d	-0.045623053
85	0x3d582ce0	0.05277717
86	0x3ca7f2c8	0.02050151
87	0xbc1be7e8	-0.00951574
88	0xbda4eda0	-0.08053136
89	0x3c82f9b8	0.015988216
90	0x3bb17e70	0.005416684
91	0x3d9170d4	0.071015984
92	0x3c734cd0	0.0148498565
93	0xbd0d3994	-0.03447874
94	0xbc47b458	-0.012188993
95	0xbce401c8	-0.02783288
96	0x3da14402	0.078742996
97	0xbdb0f8ac	-0.086411804
98	0xbc33c3a8	-0.010971941
99	0xbd998c8e	-0.07497512
100	0xbd8e49df	-0.069476835
101	0xbd8263f5	-0.063667215
102	0xbccf5598	-0.025309369
103	0x3d7f210c	0.062287375
104	0x3d9baee4	0.07601717
105	0xbd59888f	-0.053108748
106	0x3cc16c68	0.023611262
107	0xbd32ad7f	-0.04362249
108	0xbc4a1518	-0.012334131
109	0x3ca91e84	0.020644434
110	0x3dab02a6	0.083501145
111	0xbd1c87f1	-0.03821558
112	0xbdb217a6	-0.08695917
113	0x3c8ffff8	0.01757811
114	0xbd9f32d8	-0.077733696
115	0x3d46e130	0.0485546
116	0x3ceb6670	0.02873537
117	0x3d7f8d78	0.062390774
118	0xbd605351	-0.054766957
119	0x3d300880	0.042976856
120	0x3d7aac38	0.061199397
121	0xbcc26238	-0.023728475
122	0xbd42cc5f	-0.047558185
123	0x3d8066dc	0.06269619
124	0x3ceb55bc	0.028727405
125	0x3d900498	0.07032126
126	0x3d83c552	0.0643412
127	0xbc86c608	-0.01645185
128	0x3c91c870	0.017795771
129	0xbcab3c5c	-0.020902805
130	0xbdb7bb2c	-0.08971247
131	0x3d84c314	0.06482521
132	0xbcb35f58	-0.02189605
133	0xbbd800a0	-0.0065918714
134	0x3da86864	0.08223036
135	0xbdb1c5ab	-0.0868028
136	0xbcd1bbc8	-0.025602236
137	0xbd88b1bb	-0.066745244
138	0x3db141d2	0.08655132
139	0xbd9c254a	-0.076243
140	0x3d976646	0.07392554
141	0x3d534230	0.051576793
142	0x3c5b7b88	0.013396151
143	0x3d0e3318	0.034716696
144	0xbd33f861	-0.043938044
145	0x3d3c45ec	0.04596512
146	0xbdb20e7f	-0.08694171
147	0xbd9ee944	-0.07759336
148	0x3da4ebc8	0.08052784
149	0x3da53f68	0.080687344
150	0x3d694488	0.056950122
151	0xbc4c6510	-0.012475267
152	0xbc5a4a10	-0.013323322
153	0x3d1d1c50	0.03835708
154	0xbd8d302a	-0.06893952
155	0x3cf8cd60	0.030371368
156	0x3c78b420	0.015179664
157	0x3db33046	0.08749442
158	0x3d994f50	0.07485831
159	0x3db5db08	0.088796675
160	0x3cd69fa0	0.026199162
161	0xbd40b683	-0.047049057
162	0x3d447950	0.047967255
163	0x3d8ecf0c	0.06973085
164	0xbda7e582	-0.08198072
165	0x3d5f86e0	0.054571986
166	0xbd079dc8	-0.033109456
167	0x3db1f1a6	0.08688669
168	0xbd67ea02	-0.05661965
169	0xbc677750	-0.014127567
170	0xbda6ffa4	-0.08154228
171	0xbd972e19	-0.07381839
172	0xbdb6c120	-0.089235544
173	0x3c385800	0.01125145
174	0xbd92a63e	-0.071606144
175	0x3d398b4c	0.04529886
176	0xbda3bf76	-0.07995503
177	0xbdb5bbb2	-0.08873691
178	0xbda24881	-0.07923985
179	0xbb419620	-0.0029538944
180	0x3d9b9048	0.07595879
181	0xbb02ab40	-0.0019938499
182	0xbda9b404	-0.082862884
183	0x3d8530e8	0.06503469
184	0xbd9a2100	-0.075258255
185	0x3d4d7760	0.050162673
186	0x3d8d202a	0.068909004
187	0x3d9e3634	0.07725182
188	0x3d9ab0a4	0.07553223
189	0x3d8e9416	0.06961839
190	0x3d13a9f8	0.036050767
191	0x3d0b2a64	0.033975974
192	0x3d7af928	0.06127277
193	0xbabe7b40	-0.0014532581
194	0x3d8000f2	0.0625018
195	0xbb6baec0	-0.0035962313
196	0xbdb06bff	-0.086143486
197	0xbda75986	-0.08171372
198	0x3d857d72	0.065180674
199	0x3d538224	0.051637784
200	0x3da7ba60	0.08189845
201	0x3d89c53a	0.06727071
202	0x3d4aab0c	0.04947953
203	0x3cf26d7c	0.029593222
204	0xbdb006cd	-0.08595047
205	0x3d6818b0	0.05666417
206	0x3d4e73e8	0.050403506
207	0xbd6e5d67	-0.058194544
208	0x3da25220	0.0792582
209	0x3c090a00	0.008364201
210	0x3cc32574	0.02382157
211	0xbd8032bc	-0.06259677
212	0xbdb56f1e	-0.088590845
213	0xbd24def4	-0.040251687
214	0x3c114208	0.008865841
215	0x3d04cc8e	0.03242164
216	0xbcd4db68	-0.025983527
217	0xbc7ce3a0	-0.015435129
218	0x3d33c6d4	0.04389079
219	0x3d0bb5b8	0.034108847
220	0xbd974d7c	-0.07387826
221	0x3d913398	0.07089919
222	0x3cf10138	0.029419526
223	0xbd02cdfa	-0.031934716
224	0x3cc8b750	0.024501473
225	0xbae9f100	-0.0017848313
226	0xbd698ede	-0.057021014
227	0x3d81c9f0	0.06337345
228	0xbd3a0452	-0.045414276
229	0x3da0cacc	0.078511804
230	0x3da98e26	0.08279066
231	0xbda1479e	-0.07874988
232	0xbd1e1b77	-0.03860041
233	0x3dad1876	0.08451931
234	0xbcbfcd34	-0.023413278
235	0x390b9a00	0.00013313442
236	0xbcf0454a	-0.029329915
237	0xbc1798b0	-0.009252712
238	0xbd1cdab4	-0.03829451
239	0xbd856a28	-0.06514388
240	0xbcfc5c14	-0.030805625
241	0x3d66a00c	0.056304976
242	0xbd2d8ffc	-0.042373642
243	0x3d88ae8a	0.06673916
244	0x3d656dbc	0.056012854
245	0xbda02c6d	-0.078209735
246	0x3d8404d8	0.06446236
247	0x3db68f9c	0.0891411
248	0x3d8b9f84	0.068175346
249	0xbc9ee874	-0.019397952
250	0x3dac8cc6	0.08425288
251	0xbbcd2f70	-0.0062617585
252	0x3d876786	0.066115424
253	0xbd06d404	-0.032917038
254	0x3d70bda8	0.05877462
255	0xbc4540f8	-0.012039416
