BP_MLP_CNN/GoodResult/best-99.40.pth (torch, 610763 bytes, 40 tensors)

conv1.weight f4 [32, 1, 3, 3]
000000 a4 75 cf 3e 32 a1 00 3d 7b d0 0b 3e 45 f4 29 3e
       0.4051944 0.031403728 0.13653748 0.16597088
000010 bb 86 bf be 3f 59 94 bd 53 38 5f be 49 48 8b be
       -0.3740748 -0.07243585 -0.2179883 -0.27203587
000020 36 95 0d be 40 c9 59 3e 92 81 54 3e 7b b7 7a be
       -0.1382645 0.21268177 0.20752552 -0.24484055
000030 1d 3d 4f 3d 3b 63 52 3e 27 ea 46 be 90 73 63 3e
       0.05059539 0.20545666 -0.1942526 0.22212052
000040 af 4a 10 3e 6d c4 a1 be 66 67 9d 3e 38 6c 57 3e
       0.1409099 -0.31595173 0.3074295 0.21037376
000050 90 cd 10 3e 2a 70 f4 3d 2e fa 0d 3e d7 75 2a 3d
       0.14140916 0.11935456 0.13864967 0.041616287
000060 09 2d b9 be 77 aa 57 bd 17 6f 25 3e 2c 81 dc 3e
       -0.36167172 -0.052652802 0.16155659 0.430673
000070 8f cb 33 be 18 42 36 3e bf b8 13 be 51 a1 c6 be
       -0.1755812 0.1779865 -0.14425944 -0.3879495
000080 78 7e 70 be 04 ef 9e 3e 3f 2f 5b be f5 7c 91 be
       -0.23485744 0.3104173 -0.21404742 -0.28415647
000090 91 c5 16 3e c1 b4 50 be ac a7 8e be f3 b6 93 3e
       0.14723803 -0.20381452 -0.27862298 0.28850517
0000a0 f0 62 dd bc b1 6e d4 bd d5 35 7a be 2e db b3 bd
       -0.027024716 -0.10372675 -0.24434598 -0.087820396
0000b0 97 07 89 be 08 8b ef 3d cc d1 a2 3e a0 a8 4a 3e
       -0.26763603 0.1169644 0.31800687 0.19790888
0000c0 1e d8 74 3e 38 2f 9a be 6d 85 6c 3e 8a 98 9b be
       0.23910567 -0.3011415 0.23097773 -0.30389816
0000d0 df 65 36 be 9e a7 83 be b7 a2 a5 3d 46 5c 91 3e
       -0.17812298 -0.2571382 0.08087676 0.28390712
0000e0 58 6d b1 3c 23 8a c1 bd 2d 79 93 be 5f 77 b1 bb
       0.021658584 -0.094501756 -0.28803387 -0.0054158415
0000f0 42 a4 d7 3d f9 f3 64 3e c5 b8 46 be 01 f5 0b be
       0.105293766 0.22358693 -0.19406421 -0.1366768
000100 b6 46 8a 3c b8 dc 4b bc a2 e4 af 3e 0c 86 52 3d
       0.01687942 -0.01244276 0.3435412 0.05139737
000110 29 97 79 be 93 56 5b 3e 8c 9b a6 3d db 37 43 be
       -0.2437407 0.21419744 0.08135137 -0.19064276
000120 97 ae cc bd 9e 19 a9 3e 2b 3b 21 3e 03 ef 9a 3e
       -0.09994238 0.33027357 0.15745227 0.30260476
000130 e5 ec cb bd d0 fe c4 3d ae c0 e5 bd 27 84 f5 bd
       -0.099572934 0.09618914 -0.11218391 -0.11988097
000140 c9 15 90 3e c1 12 70 3c 97 5a 78 be 02 c7 57 3e
       0.2814162 0.014652909 -0.24253307 0.21072009
000150 db 25 55 3e e0 4a 80 3e 71 c2 2c be 5e 87 37 be
       0.20815222 0.25057125 -0.16871049 -0.17922732
000160 92 44 ac be 16 11 61 3e 6c 6e 8c be 04 76 8e 3e
       -0.33646065 0.21979174 -0.27427995 0.27824414
000170 77 61 78 be 1d 9e b0 bd 7c 58 75 3e 1a 11 72 bd
       -0.2425593 -0.08623908 0.23959535 -0.05909834
000180 18 5e 02 be b2 93 00 3e ff b3 7f be 16 9e 1a be
       -0.12731206 0.12556341 -0.24971007 -0.15099367
000190 5d 78 65 3e 56 c1 24 be 30 b5 47 be ed ec 84 3e
       0.22409196 -0.16089377 -0.19502711 0.2596201
0001a0 05 b8 f4 3d 91 1d c5 be e8 3a a5 3e cb b8 8d 3d
       0.119491614 -0.3849912 0.32271504 0.06920012
0001b0 a5 87 57 3e 7e d5 22 3e c3 e0 1a 3e cf 4e e9 bd
       0.21047838 0.15901753 0.15124802 -0.11391985
0001c0 09 75 b3 be 77 46 a8 bd 00 f5 0e 3e b2 ae 9b 3e
       -0.35050228 -0.08216565 0.13960648 0.3040672
0001d0 00 26 65 3e 43 66 49 3c b3 1e 55 be e7 d9 2e be
       0.22377777 0.0122924475 -0.20812492 -0.1707531
0001e0 d2 d4 19 3e 3a 0b a1 3d 47 d1 47 3e 5f a2 93 3e
       0.15022591 0.078634694 0.19513427 0.28834817
0001f0 68 11 df 3d 53 bf a2 be 59 44 59 be 3c 19 d1 3d
       0.10891992 -0.31786594 -0.21217479 0.10209891
000200 bb 6f e8 3d cc 16 44 be c6 ce 88 3e f3 eb 8f 3e
       0.11349436 -0.19149321 0.26720256 0.28109702
000210 b7 5f a0 bb e9 95 83 be 1a 46 f7 bd fa 7f 29 3d
       -0.0048942226 -0.2570031 -0.12073918 0.041381814
000220 02 aa 5f be 26 b1 86 be b8 99 5c bc 76 b9 5d 3c
       -0.21842197 -0.2630703 -0.013464384 0.013532987
000230 c6 09 fb 3d 18 19 5f 3e 56 14 7b 3e ce 40 3b be
       0.122577235 0.21786916 0.24519476 -0.1828644
000240 7e 06 3d be 86 b6 b1 be 86 91 36 be c7 47 c8 be
       -0.18459508 -0.34709567 -0.1782895 -0.39117262
000250 8c ce b4 be 56 64 fd bc b2 e0 98 be e2 e4 a5 3e
       -0.35313833 -0.030931633 -0.2985893 0.32401186
000260 b5 b4 a2 be e4 55 a3 3e 8d 50 20 be 53 f7 dc 3d
       -0.31778494 0.31901467 -0.15655728 0.10789361
000270 01 4e 95 3b 54 41 4c 3d 64 aa 66 be 18 26 0b 3e
       0.004556418 0.04986699 -0.22525936 0.1358875
000280 77 b0 c1 bd 12 00 4e 3e 32 e0 bc 3d 3c 67 1f 3e
       -0.09457486 0.20117214 0.09222449 0.15566725
000290 6f ab 6c 3e 46 a0 78 be 9f a9 13 3d df df 69 3e
       0.23112272 -0.2427989 0.036050435 0.22839306
0002a0 fa ea 62 bb b3 4d cd 3d 70 e7 81 3e 92 6e e0 bd
       -0.003462492 0.100245856 0.25371885 -0.109585896
0002b0 32 05 20 3d b9 a4 97 be 65 7c 82 3e 22 f6 a0 be
       0.039067455 -0.2961786 0.2548553 -0.31437784
0002c0 32 9e 47 be 00 04 89 3e 6f 3c 6a 3e 74 77 36 be
       -0.1949394 0.26760864 0.22874616 -0.17819005
0002d0 ce fd 21 3c 3d 64 1d be 3b 77 94 3d c3 4b 9c 3e
       0.009887172 -0.15370269 0.07249304 0.30526552
0002e0 f3 f0 10 be 1d 3c a9 be 78 bf 0d be 76 8a 96 3e
       -0.14154415 -0.33053675 -0.13842571 0.29402512
0002f0 b1 70 ab 3e 71 a2 e9 bd b0 c4 74 be 3b ca 97 be
       0.33484414 -0.11407936 -0.23903155 -0.29646477
000300 6f 96 ab bd a2 c4 4c 3e 77 72 b8 3e cd e0 e9 3d
       -0.08378302 0.19996884 0.3602483 0.114198305
000310 69 76 0d 3c 3a 94 18 3d 8f 97 ca 3d 52 8c 5f 3e
       0.008634188 0.037250735 0.09892189 0.21830872
000320 d0 77 53 be de 75 98 3e 4e 89 4c be 87 54 d3 bc
       -0.20651174 0.29777426 -0.19974253 -0.025797142
000330 8e ca a0 3e be d9 9a 3b 66 41 0c be a6 5f ee bd
       0.31404537 0.004725664 -0.13696823 -0.11639337
000340 d2 4a ae 3c 57 1c cf bd 48 98 03 3e 90 74 3d 3e
       0.021275911 -0.10112827 0.1285106 0.18501496
000350 e5 2c e0 3d bb b2 de 3d fc 73 63 3d 4e ca 9e 3e
       0.10946063 0.10873934 0.055530533 0.3101372
000360 6d 86 5b 3e b3 4b 09 3e c9 ee 6e be 39 0c 74 3e
       0.21437998 0.13407783 -0.23333277 0.23832788
000370 c2 73 50 3e 5f 4b 49 be e2 e1 75 be cb 35 8a 3e
       0.20356658 -0.19657658 -0.24011949 0.26994166
000380 f3 3a 13 3d f9 7e bc bd 20 b2 15 be 3d a9 e9 bd
       0.03594489 -0.092039056 -0.1461873 -0.11409233
000390 61 6e 37 3d 87 4c 37 3e 6d b6 55 be 3c 1f 45 3e
       0.044783 0.17900287 -0.20870371 0.19250196
0003a0 44 5f 92 3e 7c ab 5b 3d 52 9d 7d bd 45 36 ac be
       0.28588307 0.053630337 -0.06191761 -0.33635154
0003b0 f5 5f 8e be 91 cf e5 bd 09 54 63 3b c4 23 8a 3e
       -0.27807584 -0.11221231 0.003468754 0.26980412
0003c0 95 ca e1 3d 85 f4 ac 3e d2 4a e1 3d 29 8f 07 be
       0.110249676 0.33780304 0.11000599 -0.13238205
0003d0 de d6 7e be fb 70 2a bd 03 7a 8a 3e 5c 2e 29 be
       -0.24886653 -0.041611653 0.27046213 -0.16521591
0003e0 fc 8f 3f be b6 c9 a9 3e 3c 61 95 3e 86 5b b8 3e
       -0.1870727 0.33161706 0.29175746 0.36007327
0003f0 86 6a 84 be 2c 91 6b be d6 99 9d 3e 4d 1e b8 3e
       -0.2586252 -0.23004597 0.3078143 0.35960618

conv1.bias f4 [32]
000000 31 91 ea 3c 70 e3 91 be fe dc 22 3e 1e 8b 91 be
       0.028633686 -0.28493834 0.15904614 -0.2842645
000010 06 e3 df bc d9 41 87 3e aa f3 33 be 96 8b 22 3e
       -0.027329933 0.26417425 -0.17573419 0.1587356
000020 be f3 b6 3d cb 51 40 bd 25 e1 47 3b 76 b8 45 be
       0.08933209 -0.046953004 0.0030499187 -0.19308648
000030 46 cb 85 be 58 5c 25 3e e5 83 65 3e 1a 9a a5 be
       -0.26131648 0.16148508 0.22413595 -0.32344133
000040 c4 2d 83 3e ce 54 d1 3b 32 b9 97 be b3 13 83 be
       0.25620854 0.0063882833 -0.2963348 -0.25600967
000050 08 77 83 3e d3 a8 60 be 04 61 93 3e e8 9f 7d be
       0.2567675 -0.21939401 0.28784955 -0.2476803
000060 2a b4 95 be b7 ac 62 3e cb 28 a9 be 59 5c f6 3d
       -0.29239017 0.22136198 -0.33038935 0.12029333
000070 45 8d 83 3b d6 60 80 be 3a ca 81 be 4f 3c 55 3e
       0.0040146434 -0.2507388 -0.253496 0.20823787

conv2.weight f4 [32, 32, 3, 3]
000000 39 33 47 bd d4 5d 9f 3c 84 5b 36 bd 3d a8 52 3d
       -0.048632834 0.01945392 -0.04452087 0.051429976
000010 42 29 86 3c 8a a0 17 3d a0 af 5b bd 35 bf 4d 3c
       0.016377095 0.037018336 -0.053634286 0.012557794
000020 aa 96 39 3c 1d 3d be 3c aa 8d 8e bc f5 0d 7e bd
       0.011327425 0.0232225 -0.017401535 -0.06202503
000030 0f c5 1e bd 83 89 ca bc 7d 84 69 bd 19 ac b3 3c
       -0.03876215 -0.024723774 -0.057011116 0.021932648
000040 2f 3c 2e 3c 44 c9 83 bd 44 3e 57 3d c1 43 d8 bc
       0.010634466 -0.06434873 0.052549616 -0.026399495
000050 9a 9e 20 bd 1f b4 90 bc 93 e8 85 3d 94 04 57 3d
       -0.039213754 -0.017664013 0.06538501 0.0524946
000060 1d 07 03 bd 0b ab f0 3a e3 e4 95 bc 08 7b b2 bd
       -0.031989206 0.0018361522 -0.018297618 -0.087148726
000070 61 25 38 3c 80 f1 a7 bc 8d e8 43 bd 70 29 78 bd
       0.011239381 -0.020500898 -0.0478292 -0.060586393
000080 93 7a 7a bd 35 53 11 3a 46 3c 95 3d 25 57 73 bc
       -0.061152052 0.000554371 0.07286887 -0.01485232
000090 0f 9a c0 3b d3 83 1e 3b 79 24 09 bd df a7 61 bb
       0.00587774 0.002418746 -0.03348205 -0.0034432334
0000a0 ba 6f 61 bb 3d e7 4c 3d f1 21 dd bd 9f ea 53 bd
       -0.003439887 0.050025214 -0.107974894 -0.051737424
0000b0 97 a1 0d 3c c5 12 8a 3c 46 6b 11 bd e0 cd 5d bc
       0.008644483 0.016854653 -0.035502695 -0.013537854
0000c0 ed c3 86 3d 5a 0f 41 3d 75 44 5f bc a7 fb 16 3d
       0.065803386 0.04713378 -0.013627161 0.036861088
0000d0 10 85 61 3d eb 9b f4 3c 78 a5 b4 bc b4 6f 29 3d
       0.05505854 0.029859504 -0.022051558 0.041366294
0000e0 ae 24 8b bc 81 1d 14 3d 42 46 0c bd de 31 f5 bc
       -0.016985264 0.03616095 -0.03424669 -0.029931005
0000f0 26 e4 a2 3c 2a a0 80 3c f5 cc cd 3c ae 66 20 bd
       0.01988418 0.015701372 0.025122145 -0.039160423
000100 5a 2e 3d 3d b2 5b 2e 3b 0d d7 a3 bd bc eb a4 bd
       0.046186782 0.0026604948 -0.08000002 -0.08052775
000110 9f db 9f bc d4 50 26 3c 4e ee e8 3c 59 05 3b bd
       -0.019513903 0.010151107 0.028433945 -0.045659397
000120 cf c1 c2 3c 7a e8 26 3c 5d 22 19 3d d5 0c 0f bd
       0.023774056 0.010187263 0.037386287 -0.034924347
000130 c5 9a 08 bd 4a 88 12 3c 3f e5 e2 3c 2d 25 17 3c
       -0.033350725 0.008943627 0.027697204 0.009225172
000140 cb 62 48 3d 95 37 fe ba 89 76 58 ba 49 0b 18 bd
       0.04892234 -0.0019395227 -0.0008257409 -0.037120137
000150 3b 84 50 bc 50 12 a3 bc 71 80 1b 3d a6 15 4d bd
       -0.012726839 -0.019906193 0.03796429 -0.050069474
000160 b8 1b e1 bc b2 98 eb 3c a9 ee 80 bd f9 7c 00 3d
       -0.027479038 0.028759334 -0.06295521 0.031369183
000170 ad 48 68 bd 6b 45 c4 3c 82 26 84 bc 97 2c cf bc
       -0.056709934 0.023958882 -0.016131643 -0.025289817
000180 61 a3 20 bc 55 28 51 bd 1b 3d d7 bc 13 3e e1 bc
       -0.009804578 -0.051063854 -0.026274255 -0.02749542
000190 c1 91 74 bd 01 d8 3c 3c 6f 60 67 bd 3f 5f c2 bd
       -0.059709314 0.011526109 -0.05648845 -0.09490823
0001a0 84 d3 5d bd 2a 51 e5 bd 2e 28 3e bc 8f a3 88 bd
       -0.054156795 -0.111971214 -0.011606259 -0.06671821
0001b0 e5 03 6f 3c 3a 41 76 bb 2c 83 82 bc 18 35 50 3b
       0.014588331 -0.00375755 -0.015931688 0.0031769928
0001c0 23 24 3b 3d 8c 61 25 b7 11 05 ab 3d 83 f5 91 3d
       0.04568876 -9.857478e-06 0.08350576 0.07126906
0001d0 17 c2 64 3d d4 a7 f4 3c 1a 4a 69 39 1f 92 9b 3c
       0.05584916 0.029865183 0.00022248217 0.018990574
0001e0 84 01 47 bd e8 d1 35 bd f2 20 86 bd a0 40 1e bc
       -0.04858543 -0.044389635 -0.065492526 -0.0096589625
0001f0 ed ec a6 3b bb f5 dd bc ce 77 be 3b 7b cf 97 bd
       0.0050941617 -0.027094712 0.0058126217 -0.07412621
000200 5f b1 dc 3c 15 6b 87 3b e4 48 af 3c 8f ff d9 bc
       0.026940046 0.004132638 0.021397062 -0.026611118
000210 77 64 8e bd 6f 65 1e 3b 87 4d 90 3d 24 3d 5b 3c
       -0.06952756 0.0024169346 0.07046037 0.013381276
000220 06 47 75 3d 3c 54 4a 3d 3a 3c 92 bd 66 b3 d7 bc
       0.059882186 0.04939674 -0.071403936 -0.026330661
000230 a1 ab d1 bc 72 57 03 3d 0c 3b b0 bc 88 97 39 bb
       -0.025594534 0.032065816 -0.02151253 -0.002831908
000240 d0 9a 76 bd cd 70 96 bb a9 e7 0c 3d f5 38 07 bd
       -0.060206234 -0.0045910836 0.034400616 -0.033013303
000250 03 d7 24 bd 28 a1 16 bd 11 43 2a 3d ac a9 06 bc
       -0.040244114 -0.036774784 0.041567866 -0.008219164
000260 a5 8f 8b bd 3b 9f 86 3d 06 77 2e bd 48 c1 dd 3c
       -0.068145074 0.065733396 -0.04259398 0.027069703
000270 9b 21 0a 3d 41 f8 57 bd 4a 8f c3 bc e0 41 20 3d
       0.033723455 -0.052726988 -0.023872036 0.039125323
000280 19 d7 99 3c 30 15 0d bd ea 35 ef bc 31 79 fe 3c
       0.018779324 -0.034444034 -0.029200513 0.031063648
000290 ce 00 23 3d 41 9a 99 bc df 3c 1c 3d 2e aa 21 3d
       0.03979569 -0.018750312 0.03814399 0.039468937
0002a0 d0 c9 21 bc 7a 6d df b9 e8 35 e4 3c 85 5b 20 3d
       -0.009874776 -0.0004261544 0.027857736 0.03914978
0002b0 77 aa 27 bd 19 cf f0 bb b3 90 e1 bd aa 06 99 bd
       -0.040934052 -0.0073489067 -0.11013927 -0.07471974
0002c0 51 2a da bd f8 ac 43 3d 85 42 69 3c 3d f6 0e bc
       -0.106526025 0.047772378 0.014237051 -0.0087257
0002d0 ca d3 83 3d 97 89 39 3d 1a 1a 98 3b e4 3a 7c bd
       0.0643688 0.04529723 0.0046417834 -0.0615796
0002e0 44 89 bc 3c 90 f4 4e 3b f6 cc 09 bd ed 66 1d bd
       0.023014672 0.0031578876 -0.03364273 -0.038428236
0002f0 85 8a 8e 3d 3a 06 12 bd 09 b8 d8 3c a0 66 0b 3d
       0.06960014 -0.03565047 0.026454942 0.034033418
000300 12 fd b2 bd f5 f5 37 bc 87 25 54 bc 86 30 d2 3c
       -0.087396756 -0.011228074 -0.0129484 0.025657903
000310 18 46 e6 bc cb bb 3a 3c 29 b1 58 bd 6c c8 58 bc
       -0.028109595 0.011397312 -0.052903328 -0.013231378
000320 a9 68 12 bd 89 a3 01 3d a5 7b 98 bd 06 fc 30 bd
       -0.035744343 0.0316501 -0.07445458 -0.0432091
000330 fc 45 06 3d fe 4f b4 bb 7a cd ed bc ba 88 8d 3d
       0.032781586 -0.0055027 -0.029028643 0.06910844
000340 b4 63 f5 3b 18 ae 70 3d 8f 6a a7 ba 74 83 60 bd
       0.007488692 0.05875978 -0.0012772846 -0.054812863
000350 24 8f a1 3b 53 3b d1 3a 66 5a 9f 3c d8 c1 39 bd
       0.004930394 0.0015963115 0.019452285 -0.04535088
000360 56 2d 57 3d 14 ce a1 3a cd b2 6d bd c6 33 0a bd
       0.05253347 0.0012344741 -0.058031846 -0.03374078
000370 41 ae aa bc 8b 64 09 3c be 05 51 bc 6f 1e ee 3c
       -0.020835044 0.008385788 -0.012757717 0.029067246
000380 af 66 07 bb cd d8 4d 3d 06 e9 8d 3d 00 c2 6b bc
       -0.002066057 0.050255585 0.06929211 -0.014389515
000390 03 4e d4 bc 5f 8f 1a bd fb 18 a6 bd 17 2b 98 bc
       -0.025916105 -0.037734386 -0.081102334 -0.018575234
0003a0 9e ce 90 3d 7b fc f3 3c 8c 82 8a 3d 3d 6a 45 3b
       0.07070659 0.029783478 0.06763181 0.0030123137
0003b0 ff 44 91 bc 16 54 92 3c ff b7 91 bd 4a f7 3b bd
       -0.017733095 0.01786236 -0.071151726 -0.04589013
0003c0 83 0e fa bc ec 2b 38 3c 95 98 16 3d 7d 66 a2 3c
       -0.030524498 0.011240941 0.036766607 0.01982426
0003d0 76 cb 6e 3c d6 9d 12 3d 45 aa 5b bd d6 49 fb 3c
       0.014574876 0.035795055 -0.05362918 0.030674856
0003e0 25 32 38 bd f5 dc 92 3d 43 e7 31 3c 9c ff 32 3d
       -0.044969697 0.071710505 0.01085836 0.0437008
0003f0 2f 75 81 3d a9 9b 2d 3c 99 df b5 bb 80 60 dc 3c
       0.06321179 0.010596194 -0.0055503366 0.026901484

conv2.bias f4 [32]
000000 f0 db 0c 3d 9a 38 46 3d 35 92 44 bd 65 55 cc 3c
       0.034389436 0.048393823 -0.047990996 0.024943063
000010 b7 65 2d 3d 67 d5 06 bb 35 45 21 3c 60 44 40 bc
       0.04233333 -0.0020573975 0.00984316 -0.011735052
000020 d4 6a 97 3c 10 82 1b 3d 4f 45 7c bd 9e 29 a5 3c
       0.018483557 0.037965834 -0.061589535 0.020161446
000030 e0 98 c8 3c de 35 a6 3c 66 9e 14 3d 63 db 6a 3d
       0.024486959 0.020289358 0.036283873 0.05733813
000040 62 23 4d bb 2d 1f 75 bd 8c ac 91 bc 0e ca 03 3d
       -0.0031301607 -0.059844185 -0.017782472 0.032175116
000050 8d f0 63 bd ee 50 86 3c 3c 1f 69 3b 42 98 bc bb
       -0.05564933 0.016396012 0.0035571596 -0.0057554552
000060 a7 e9 b7 bc f2 67 c1 bc 76 6d 91 3d a7 e6 2c bd
       -0.022450281 -0.023609135 0.07100956 -0.042212155
000070 47 b4 e4 bc f5 f7 33 bd 9d dd d5 3b 12 2d 84 bc
       -0.027917994 -0.043937642 0.0065266625 -0.016134772

conv3.weight f4 [64, 32, 3, 3]
000000 92 7f 35 bd 1d 61 86 3b 8f 39 04 bd 2d 2d 9f 3c
       -0.044311114 0.0041009323 -0.032281455 0.019430721
000010 57 b9 0d 3d 8d 83 02 3c d9 43 d4 bc 65 18 21 3d
       0.034600582 0.007965934 -0.025911259 0.039329905
000020 d8 71 91 3d f1 04 1a 3d 83 d1 38 3d ed a0 81 bc
       0.07101792 0.03760237 0.04512168 -0.015823806
000030 d3 7d 4f bd d1 7a d4 3c 0c 31 64 bd 08 2d d8 bd
       -0.050657105 0.02593747 -0.055710837 -0.10555464
000040 00 f2 e6 bd 3a 01 c4 bd 2c 7d f9 3c ac f1 bb 3b
       -0.112766266 -0.095705464 0.030455194 0.0057355966
000050 0d 52 15 3d 9c 47 b0 3c d4 7c b3 3b fc bd a2 bc
       0.036455203 0.021518521 0.005477527 -0.019865982
000060 a5 48 52 3d 04 b1 74 bc 56 75 a6 3d e0 c6 b1 3c
       0.05133881 -0.014934782 0.08127849 0.021701276
000070 ee 02 04 3d 11 10 66 3d 89 e1 9d 3d 9d a6 36 3d
       0.032229356 0.056167666 0.07709033 0.04459249
000080 4e d3 36 bc a2 2f 9c bc ed e2 05 bd 3a 6a e4 3c
       -0.011158777 -0.019065682 -0.032687116 0.027882684
000090 6a b1 bc 3c da a2 2c bd 74 90 78 bb c0 6e 3a bd
       0.023033816 -0.042147495 -0.0037927898 -0.045515776
0000a0 87 aa e2 bd eb 54 a7 bd db 40 b3 bc f5 1d 93 bd
       -0.11067682 -0.08170494 -0.021881511 -0.07183448
0000b0 ae b3 96 bd e4 0c 35 bc a1 4a 65 3d 43 0e b1 bc
       -0.0735849 -0.011050437 0.055979375 -0.021613246
0000c0 4c ad 57 ba aa 3e 3c 3c 11 c4 14 3d ca 23 58 3d
       -0.00082274224 0.01148955 0.036319796 0.052768506
0000d0 fb 82 30 3b e2 89 fc 3b 8e 56 bf 3c 44 af 88 bd
       0.002693354 0.0077068666 0.023356702 -0.06674054
0000e0 d1 5a e6 3c bf 71 22 bd 1e ab a4 bd 74 c2 55 bd
       0.028119477 -0.039659258 -0.080404505 -0.052187398
0000f0 44 ae 1e bd 7b e4 fc bd 5b 4a ac bc 4b bf 82 bc
       -0.03874041 -0.12348267 -0.02103155 -0.015960356
000100 fe e7 49 3d e8 7a 34 3c 70 6c ee bc 2b ba 86 3d
       0.04929351 0.011015631 -0.029104441 0.065784775
000110 9d c1 a2 bc af 05 2d bd b3 5f 1a 3d 4e cf 52 3d
       -0.019867713 -0.04224175 0.037688922 0.051467232
000120 53 b5 0f bd a8 30 9b bc 2d 29 02 bd 6a 8e 0a be
       -0.035085034 -0.0189441 -0.03177755 -0.13530889
000130 16 9a 5b bd 8f df 97 bd 0c af 06 be 43 54 90 bd
       -0.053613745 -0.07415687 -0.13152713 -0.07047322
000140 b0 e1 ba bd 97 51 ab 3c ec 16 28 3d a7 04 5d 3d
       -0.09125078 0.020912929 0.041037485 0.053959515
000150 e5 03 88 bd c0 c4 6d bc 23 da a9 3d 89 dd 41 3b
       -0.06641368 -0.014512241 0.082935594 0.0029581508
000160 17 cd 17 3d 1c 4b 53 bc 40 8e b7 bc 55 2a ae bc
       0.037060823 -0.012896325 -0.022406697 -0.02126042
000170 05 42 30 3d d5 3f 5c bc d0 3a c7 bb 92 6a 82 3d
       0.04303171 -0.013442953 -0.006080009 0.06367983
000180 a9 df 49 bd f4 58 ef bc 10 48 30 3d 82 31 a9 3c
       -0.049285565 -0.02921722 0.043037474 0.02065349
000190 fb 24 35 bd 19 76 a5 3a 3c f8 f2 bc 01 16 cf 3c
       -0.04422472 0.0012623697 -0.029659383 0.025279047
0001a0 e0 d4 0f 3d ea ed 05 bd a0 f4 c5 3b 3c e9 05 3d
       0.035115123 -0.032697596 0.0060411245 0.032693133
0001b0 57 e2 a0 3d 20 f0 58 3d 0c 2c 8e bc 13 8c c9 3c
       0.07855671 0.052963376 -0.017354988 0.024602925
0001c0 71 1a 6e bd 32 e5 5d 3b 83 be fe bd 43 e0 c8 bc
       -0.058130685 0.0033858535 -0.12438681 -0.024520999
0001d0 81 0a c2 bd 9a 00 96 3d 1a ea 21 3a c4 65 0f 3d
       -0.0947466 0.073243335 0.00061765464 0.03500916
0001e0 b6 fe 41 bd 50 ad bd bc a7 18 87 bd 07 0d e8 bc
       -0.047362052 -0.02315393 -0.06596499 -0.028326524
0001f0 43 56 da bd 0d db 53 bd 94 15 29 bd 9a 47 58 bd
       -0.10660984 -0.051722575 -0.041280344 -0.05280266
000200 94 f3 90 bd 4a 20 b9 ba dd 82 99 bd 15 42 88 bd
       -0.07077709 -0.0014124003 -0.07495663 -0.06653229
000210 e9 36 ac ba 8b 72 00 3d 71 6f 0a 3d 74 00 4c 3c
       -0.0013138923 0.031359237 0.033797685 0.01245128
000220 90 a5 da 3b dd 59 04 3d f8 bc ec bc 90 95 08 bd
       0.0066725686 0.032312263 -0.028898701 -0.03334576
000230 f1 fb 3d bb b2 13 f4 ba fb fb d8 bc f2 6a 44 bd
       -0.002898928 -0.0018621592 -0.026487341 -0.047953553
000240 4d 55 3c ba a2 06 45 3d 44 61 a1 bb b7 a8 fb bc
       -0.00071843417 0.04810203 -0.004924925 -0.030720098
000250 67 33 57 3b 90 83 04 3d 3b 81 10 bd 04 a2 02 be
       0.0032837035 0.03235203 -0.035279494 -0.12757117
000260 45 cb 8e bd 24 fc a0 bb 61 2e 00 3d 66 62 43 bd
       -0.06972364 -0.00491287 0.03129423 -0.047701262
000270 5f 43 ea 3c e0 35 2b 3d 2a 97 e2 3a 5a 3c 44 bd
       0.028596578 0.041799426 0.0017287482 -0.04790912
000280 de 6c 6c 3d ea 09 4f bc 9e 70 29 3d c5 89 0b 3d
       0.05772101 -0.012636641 0.041367166 0.034066934
000290 6c 1a 0c 3b 95 62 a5 3c 9c 37 d0 bc 60 1f a6 3c
       0.0021378053 0.02018861 -0.025417142 0.020278633
0002a0 84 28 17 3d 06 14 a5 bb ab cf 94 3d 58 5e 0a bd
       0.036903873 -0.0050377874 0.07266172 -0.03378138
0002b0 2e 9c 9b 3c 04 0e 2a 3d a2 34 0c 3c e5 9a 3a 3c
       0.01899537 0.041517273 0.0085574705 0.011389469
0002c0 44 b7 ae 3d 4c 75 11 39 2c 5f 18 bc e1 dd af 3c
       0.08531049 0.00013871974 -0.0093000345 0.021468105
0002d0 85 20 1c bd 39 fe 6a 3c 24 cd 8c 3d b6 06 20 bc
       -0.03811695 0.014342838 0.06875065 -0.009767225
0002e0 e2 d8 22 3d 84 7d 6f bc 58 9d bf 3b b0 5d 02 bc
       0.039757617 -0.014617328 0.0058476143 -0.007956907
0002f0 53 56 00 3d 5e 51 dc 3b 44 9e e2 bc 51 74 5c bc
       0.031332325 0.006723567 -0.027663358 -0.013455466
000300 0b a5 1a bd 12 d5 4f 3c c7 44 67 3c f3 7f 94 bc
       -0.037755053 0.012685077 0.014115519 -0.018127417
000310 88 f0 ef 3c b3 9b 2a 3d dd fe 81 3d f3 ee 02 3a
       0.029289499 0.041652393 0.063474394 0.00049947127
000320 84 95 b6 3c e2 39 f6 37 67 d5 dc bc 11 65 40 bd
       0.022288091 2.9352439e-05 -0.026957227 -0.046971384
000330 39 81 0c bd 88 25 ad 3c 32 2b ad bd e1 e6 84 bb
       -0.034302924 0.02113606 -0.084555045 -0.004055843
000340 99 55 8f 3d 67 a5 33 3d 66 6e b9 ba ee cb b4 3c
       0.06998748 0.04385891 -0.0014147281 0.022069898
000350 03 19 97 3c fb 4f 81 bc a8 42 d1 ba 6d 92 be bc
       0.018444544 -0.015785208 -0.00159653 -0.02326318
000360 8d 58 57 bd 28 d9 9f ba 75 a6 1e 3d fa 89 f8 3c
       -0.052574683 -0.0012195455 0.038732965 0.03033923
000370 74 13 29 3d a3 b1 8e bc 29 12 32 3d 72 62 94 ba
       0.041278318 -0.017418688 0.04347435 -0.0011320843
000380 80 a3 ef 3c 7a 14 c7 bb 88 e0 c9 3c ea d0 3e 3d
       0.029252768 -0.006075439 0.024643198 0.046585955
000390 3b d7 86 bd bd f2 52 3d c3 02 15 3d bc b3 01 be
       -0.06584021 0.051501025 0.036379587 -0.1266622
0003a0 db 25 8b bd 52 c6 3c bd 71 6c 1f bd 4b 22 99 bd
       -0.0679433 -0.04608757 -0.038921777 -0.07477244
0003b0 28 6d 74 bd c0 af c7 3c a2 06 82 bd a8 4b ac bd
       -0.059674412 0.024375796 -0.06348921 -0.08412868
0003c0 23 0b b8 bb fe 57 3e bc 4b e5 a4 bd 0f fb ba ba
       -0.005616562 -0.011617659 -0.08051547 -0.0014265495
0003d0 a2 f2 90 3c 8e 93 07 bd ee 4e 2e 3d 21 a3 5e ba
       0.017693821 -0.033099703 0.042555742 -0.0008492936
0003e0 b7 ee 76 bc 5d 75 00 3c de 99 65 bc 36 0f 25 bd
       -0.0150715625 0.007840482 -0.014013736 -0.04029771
0003f0 1d a6 a4 3d 95 71 04 bd da 52 33 3d 4d da 20 3b
       0.08039496 -0.032334883 0.043780185 0.002454418

conv3.bias f4 [64]
000000 e1 86 51 bd 1a f9 75 3d 05 9d f8 3b 30 e4 ba bc
       -0.05115402 0.060052015 0.0075870776 -0.022813886
000010 67 9a d9 3b bf 1d 35 3c f0 6c 52 3c 25 ad 49 bc
       0.0066407206 0.011054455 0.012843356 -0.012309347
000020 43 b1 02 bd 2f 8d 0f 3c d1 7b cb bc 89 0f 3b bd
       -0.03190733 0.008761688 -0.024839314 -0.045669112
000030 5c 35 76 bd 0c 9b f9 3c 84 c6 ad bd 4d 91 2a bd
       -0.06010948 0.03046944 -0.084851295 -0.041642476
000040 81 d5 20 3d f0 66 6b bd 0e 55 46 bc 62 48 d2 bc
       0.039266113 -0.057471216 -0.01210524 -0.02566928
000050 76 67 c1 bc 99 52 ef bb 38 91 e1 bc b9 71 55 bd
       -0.023608904 -0.0073035476 -0.027535066 -0.052110408
000060 aa 7e 01 bc 9e 3c 22 bd 77 83 90 bc a6 a3 d0 bb
       -0.007903734 -0.03960859 -0.017640812 -0.0063671647
000070 4d b2 84 3c 43 81 5b bd 92 22 3f bd af 99 a0 b9
       0.016198302 -0.05359007 -0.04666383 -0.0003063208
000080 cc 6d 2c 3d a7 bb 09 bc 81 e3 96 bd 8c 95 75 bc
       0.042096898 -0.008406556 -0.07367612 -0.014989268
000090 84 70 0d bd 72 05 35 3d 53 eb 28 3d 2e 76 25 3d
       -0.03453113 0.044194646 0.041240048 0.040395908
0000a0 b4 a6 7e bd 7c 8f a5 bc 2f 56 14 bd 64 3d 77 bc
       -0.0621707 -0.02021002 -0.036215004 -0.01509032
0000b0 65 27 ac bc b4 70 11 3d ed 17 75 bd 6a 54 53 bd
       -0.021014879 0.035507873 -0.05983727 -0.051594175
0000c0 34 88 37 3d ab c2 86 bd 7c 83 7d bd c3 2f 3f bb
       0.044807628 -0.06580099 -0.06189297 -0.0029172755
0000d0 be 37 01 bb e3 a6 b0 3c e2 e0 17 3d cd 2e ba bc
       -0.0019717063 0.021563953 0.0370797 -0.022727394
0000e0 50 37 4d bd 40 46 5b bd fa fd 28 bd 99 99 4e 3c
       -0.05010158 -0.053533792 -0.041257836 0.012609863
0000f0 f9 3f 43 3d bd 2a 34 3c b9 56 2c 3c d2 36 20 bd
       0.04766843 0.010996518 0.010518723 -0.03911478

conv4.weight f4 [64, 64, 3, 3]
000000 96 b1 70 39 4e d3 cc 3c c5 c2 eb 3c b6 0c bc 3b
       0.0002295434 0.025003102 0.028779397 0.00573882
000010 ac 02 0d 3d 19 4f a6 3d 0d 84 e0 bc c6 90 fd 3c
       0.034426376 0.081205554 -0.027406717 0.030952822
000020 1c 22 5f 3d 67 6e 71 bc b8 cd 10 bd b7 02 6f bc
       0.05447589 -0.014735795 -0.03535244 -0.01458805
000030 bc 7a 99 bb 14 a0 a4 bc a6 75 59 bd 10 e2 24 bd
       -0.0046838205 -0.020095862 -0.053090714 -0.040254653
000040 71 9e 99 bd 46 6f e2 bc d6 bd 12 bc 4b 4c 8b 3c
       -0.075009234 -0.02764095 -0.008956393 0.017004153
000050 be ff 41 3c 3a cf 80 3d ee d1 11 3c 5d 37 df 3c
       0.011840759 0.06289525 0.008900149 0.027248079
000060 7c 67 13 3d 1a ff 3e 3d 35 9e 5c 3d 36 8e 0e 3d
       0.035987362 0.046630003 0.053861815 0.03480359
000070 17 de be 3c 8b 2e 46 bd 49 64 a2 3c cb dd fb bb
       0.02329926 -0.04838423 0.01982321 -0.007686352
000080 d8 22 1e bd 38 5c 55 3d 4b ef 89 3c 13 10 90 bd
       -0.03860745 0.0520899 0.016837737 -0.07034316
000090 89 74 28 bd 4b fb 7a bb 2b f0 76 bc 1d 62 d8 bc
       -0.04112676 -0.0038296755 -0.015071909 -0.026413972
0000a0 39 82 00 bc a2 1f ee bc 12 b1 67 3b 6e a4 0d 3d
       -0.0078435475 -0.029067818 0.0035353345 0.03458064
0000b0 29 dd de bc 56 bb f7 3c a0 bd 5d 3c e3 d8 75 bb
       -0.027205067 0.030240696 0.01353398 -0.0037513308
0000c0 1f 68 b7 bc de b9 32 bd d7 c0 b2 bd b1 9d 29 3a
       -0.022388516 -0.043634288 -0.087281875 0.0006470336
0000d0 10 ff c9 bc f4 0d 04 bd f0 ae b4 3c e7 1b 21 3c
       -0.024657756 -0.03223987 0.022056073 0.009833313
0000e0 52 ee 61 bd 0b 78 58 3c dc 07 af 3b ba 95 61 bd
       -0.05515892 0.013212214 0.005341513 -0.05507443
0000f0 f3 b1 73 3d ec d6 df bb e8 4a 70 bd 27 bf 05 3d
       0.059495877 -0.0068310406 -0.058665186 0.032653
000100 72 4c b7 bc 1f 19 e5 bb bc bf 86 3c 87 41 a7 3b
       -0.02237532 -0.00699152 0.016448848 0.005104247
000110 5d e0 db 3c 74 75 50 3c 39 b7 1a 3d e7 a3 6d 3c
       0.026840383 0.0127233155 0.03777239 0.014504409
000120 6e 23 b9 3b 0e 9f 33 3d 27 2e 95 bc 4a 14 f2 3c
       0.0056499755 0.04385286 -0.018210484 0.02955069
000130 1f a9 ed 3c 8e c1 77 bd e1 f6 58 3d 76 70 80 3d
       0.029011307 -0.060487323 0.052969817 0.0627145
000140 aa d9 71 3c f3 1e c9 3c f9 9b ff bc d3 51 f3 39
       0.014761368 0.02455089 -0.031202303 0.00046409536
000150 f7 92 0c 3c 49 de e2 bc 86 11 9f bc f7 80 e6 bb
       0.008579961 -0.027693884 -0.019417536 -0.007034417
000160 08 04 d0 bc dc fc 71 3c e4 ef cf bd 2b 12 14 3d
       -0.025392547 0.014769759 -0.101531774 0.03615014
000170 e8 6f 07 3d ee 3e 62 bd f8 7c fb 3b 04 b1 9e 3c
       0.033065706 -0.055235796 0.0076748095 0.019371517
000180 53 55 54 bd 0f 5a 07 3d 22 5b 92 3d 58 a7 e9 3c
       -0.051839184 0.03304487 0.071462885 0.028522179
000190 f1 1c c1 bb a3 d2 e0 bd 2b 3d bd ba fc c9 1d bb
       -0.0058933427 -0.10977676 -0.0014437785 -0.002407669
0001a0 a0 60 84 bd 18 6f 58 bd 1f 0a 08 3d 2c 81 05 bd
       -0.06463742 -0.052840322 0.033212777 -0.03259389
0001b0 7c a4 0a 3d 35 31 0d bd fe e9 19 bd 19 88 37 3d
       0.03384827 -0.034470756 -0.037576668 0.044807527
0001c0 5c 6c 20 3d 12 64 2d bd 61 d8 ca 3c c9 b5 c7 3c
       0.03916584 -0.042331763 0.02476138 0.024378674
0001d0 ed 01 c1 bd a2 17 d3 bb c9 8f 09 3d a1 b7 9c bd
       -0.094241954 -0.0064420262 0.03358439 -0.07652212
0001e0 f7 58 89 3b a3 59 c8 3c ee f9 0e be 61 e3 99 3d
       0.0041915136 0.024456805 -0.13962528 0.07514072
0001f0 ab 2d 92 ba c6 1f 0e be 3b 77 88 3c ea e1 5d 3c
       -0.0011152526 -0.13879308 0.016658416 0.013542632
000200 d8 56 32 3d 2a c6 86 ba ac a5 82 bc aa 9a 84 3c
       0.043539852 -0.0010282446 -0.01594814 0.01618703
000210 28 74 a2 3b 30 23 42 bd 83 4f 86 bb 90 d4 15 bd
       0.0049576946 -0.04739684 -0.004098834 -0.03657967
000220 6b c9 86 bd 80 1e 8f bd 8e 24 53 bd 3e 7b de bd
       -0.06581386 -0.06988239 -0.051548533 -0.1086335
000230 19 a4 88 bd fd 76 a4 bd 54 43 2d bd 8c c6 63 bd
       -0.06671924 -0.08030508 -0.042300537 -0.05560927
000240 0e c7 a5 3b ba c9 b5 bb 14 e7 19 bd 9e 7c 0b 3d
       0.0050591296 -0.0055477293 -0.03757389 0.03405439
000250 c3 7f 17 3d d4 26 11 bd 9d 71 dc 3c 9d bd 79 3b
       0.036987077 -0.03543742 0.026909644 0.0038107403
000260 dc 47 82 3c eb 8a 0f 3c 33 77 35 3d e3 c2 3e 3d
       0.015903406 0.008761148 0.04430313 0.046572577
000270 4c 54 d4 bb 7b fb ba 3b 98 3a 90 3d 54 5d 76 3d
       -0.0064797755 0.0057062483 0.07042426 0.0601476
000280 33 f3 6a 3d 33 2f 04 3d e6 a9 c4 bd 51 4a 4f bc
       0.05736084 0.032271575 -0.09602718 -0.012651996
000290 f5 c4 4d bc 42 39 2d bd ea 0d b9 3c 90 3f 51 3d
       -0.012559165 -0.042290933 0.022589643 0.05108601
0002a0 04 0b 8b b7 6a 38 2d 3d 68 cb 5e 3c b8 0a 1f 3c
       -1.657522e-05 0.04229013 0.0135983005 0.009707145
0002b0 bc b6 06 bc fc 26 8d bd 76 0f af bc 7d d6 f9 bb
       -0.008222278 -0.06892201 -0.021369677 -0.007624446
0002c0 49 67 b4 bd bc f6 23 bd 44 58 4a bd c3 2d af bd
       -0.088087626 -0.040030226 -0.049400583 -0.0855365
0002d0 27 17 62 bd 87 a9 5d bd ad 42 a0 3c 4b 91 a1 bd
       -0.05519786 -0.054116752 0.019563043 -0.078890406
0002e0 3e c3 63 bc 30 92 1a 3d 05 fa f8 bc e7 90 74 3c
       -0.01390153 0.03773707 -0.030392656 0.014927126
0002f0 a4 cd 1c 3c 4e 3e e5 bd ad 62 fd bc c3 ae e0 bc
       0.009570513 -0.11193524 -0.030930841 -0.027427083
000300 e4 37 5c bd 9a 1c 9e 3c 98 6e 0d 3d 17 cd f5 bb
       -0.05376424 0.019300748 0.0345293 -0.0075012553
000310 c0 cf b4 3c 05 ef 6c 3d d6 ea 0d 3d ae 5c 5d 3d
       0.02207172 0.057845134 0.034647785 0.054043464
000320 81 4c 70 bd 5d 5b 6b 3c 43 54 0d bc 03 c7 9b 3c
       -0.05866671 0.014365044 -0.008626047 0.019015795
000330 a0 a1 51 3d e0 3a ec bc 05 56 af bc 16 79 81 3d
       0.05117953 -0.028836668 -0.021403322 0.063219234
000340 78 c0 58 3d d5 c4 19 3d ae e7 90 3c a3 aa 85 3d
       0.052917928 0.03754123 0.017688598 0.06526687
000350 f4 dd ec 3c 0d ec 5c 3c 6c 3d 0f 3d d7 e9 a8 3c
       0.02891443 0.013484013 0.034970686 0.020619316
000360 e3 ab b7 bc 45 07 32 3d 88 68 1d 3d e6 5f 43 bc
       -0.02242083 0.043463964 0.038429767 -0.011924719
000370 e8 e7 1b 3d 09 0e 0e 3d 6c 9d 3c 3d 53 7c 15 3c
       0.03806296 0.034681354 0.046048567 0.0091238795
000380 c3 02 7a 3d 1e 32 08 bc 60 1b af bc f7 43 76 bd
       0.06103779 -0.00831273 -0.021375358 -0.06012341
000390 a1 d5 46 3c a9 4b 07 bc dd 2e 64 bd f7 06 7f 3d
       0.012135894 -0.008257785 -0.055708755 0.0622625
0003a0 81 cb fb bb e7 98 b3 bb d7 f9 16 bc ce e3 9e bd
       -0.0076841717 -0.005480874 -0.00921484 -0.07758294
0003b0 35 a6 19 be 73 01 00 3d f3 6b 8d bc c6 69 c9 bd
       -0.15004809 0.031251382 -0.017263388 -0.09834628
0003c0 8d b3 81 3c 2f 83 a5 3b 52 4b 6b ba 0b ae bf bd
       0.015832687 0.0050510387 -0.0008975762 -0.09359368
0003d0 ff c0 64 bc 42 71 88 bc b2 e7 3f 3b 0e 8d 3c bc
       -0.0139620295 -0.016655568 0.0029282388 -0.011508239
0003e0 82 bd 2e bd 45 80 96 3c eb c2 c9 3b ff e5 d2 3a
       -0.042661197 0.01837171 0.0061572692 0.0016090273
0003f0 c4 82 70 bd d6 bf 72 3b ca b3 4b bd e3 f6 3a 3c
       -0.058718458 0.0037040613 -0.049732007 0.011411401

conv4.bias f4 [64]
000000 0d 67 71 bc e4 16 f0 3c df 41 19 3d 1b 22 23 bc
       -0.014734042 0.02930779 0.037416335 -0.009956862
000010 78 5e 7f bc ac e5 a4 3c 93 84 0c 3c b5 6e b5 3c
       -0.015586488 0.020129047 0.00857653 0.022147516
000020 96 9d 18 3d e9 55 40 3d bf 14 1d bd 2d f3 3a 3b
       0.03725966 0.04695693 -0.038349863 0.0028526292
000030 8e 8b c0 bc f2 4e be bb 8b 59 9e bc 2d 30 e2 3c
       -0.023504045 -0.005807751 -0.019329807 0.027610863
000040 fb ff ad 3c 54 52 0a bb bf 53 3b 3c 0a 3e 59 bc
       0.021240225 -0.00211062 0.011433541 -0.01325942
000050 d7 b6 ad 3c 0c ee 03 3d e8 61 3d 3d d2 bc 55 3c
       0.021205349 0.03220944 0.04623595 0.013045507
000060 84 93 60 3c ad e6 b0 3c 5f 41 b8 3c 72 99 b5 3b
       0.0137070455 0.02159437 0.022492109 0.0055419737
000070 08 f7 29 bd 68 a3 0b 3c f6 6c 18 3b 34 ab 99 bc
       -0.041495353 0.008522846 0.0023258305 -0.018758394
000080 c5 24 8f bc ae 30 ed bb e4 5b 92 3c d9 ff 16 3c
       -0.017473588 -0.007238469 0.017866082 0.009216272
000090 a2 76 1e 3d fd dc 81 bc 00 a7 9f 3c 3c 64 00 bb
       0.038687356 -0.015852446 0.019488811 -0.0019590994
0000a0 ef 19 d9 bc fd 89 31 3c 2f 1d c5 bc 3b 5c 85 bb
       -0.026501624 0.010836122 -0.024061767 -0.0040698326
0000b0 80 bc 60 bd aa c6 cb 3b eb 65 f1 bc 3a 7e ee 3c
       -0.054867268 0.006218751 -0.029467544 0.029112924
0000c0 54 fb c4 3c 1b 03 97 bc db 58 59 bd f0 e7 f3 3c
       0.024045624 -0.018434098 -0.053063255 0.029773682
0000d0 76 15 18 3d 80 0a 49 bd e0 94 62 3c b2 03 63 3c
       0.03712984 -0.04908228 0.01382944 0.0138558615
0000e0 1d 6f d1 bc ee 3a 28 3d ac f9 ad bc 40 75 00 3d
       -0.025565678 0.041071825 -0.021237217 0.03136182
0000f0 5e 7c bf bb f2 a5 fb bb e7 74 66 ba d8 96 a6 bc
       -0.005843683 -0.0076796943 -0.00087912235 -0.0203356

linear1.weight f4 [120, 588]
000000 90 9a ad 3c ba f2 6a bc 0e 5b 83 3c c0 3a 6c 3b
       0.021191865 -0.014340097 0.01603463 0.003604576
000010 bc 4d f6 3c 65 3f 12 bd 07 97 b5 bc 46 93 cd bc
       0.030066364 -0.03570499 -0.022166742 -0.02509464
000020 33 aa b6 bc 10 d9 2c 3b 10 e7 cc 3c 90 cf 11 3d
       -0.022297954 0.0026374497 0.025012523 0.035598338
000030 b8 a2 0c 3d c0 97 13 3d 60 af 1a 3b 94 b0 3b bc
       0.03433487 0.036033392 0.0023603067 -0.011455674
000040 cc 49 0e 3d 6a bf 80 3c 44 0a 26 3d a0 dd e5 bc
       0.034738347 0.015716273 0.040537134 -0.02805978
000050 1c 29 ef 3c 54 f9 0c bc dd 06 fc bc 30 4a 61 3c
       0.029194407 -0.008604366 -0.030764991 0.013750598
000060 d4 20 c4 3c d8 67 da 3c e4 59 07 3d 50 4e 9a bb
       0.023941435 0.026660845 0.03304471 -0.0047090426
000070 ad 0c 08 bd ec 8c 52 3c c8 31 b1 3b 50 7f 27 3b
       -0.033215214 0.012850981 0.0054075457 0.0025558062
000080 17 82 ce bc cb 11 92 bc 76 9d 04 bd 68 bc eb 3c
       -0.025208516 -0.01783075 -0.03237673 0.028776363
000090 08 80 fa bb 00 76 fc b9 48 71 16 3d 88 82 42 3c
       -0.007644657 -0.00048153102 0.036729127 0.011871941
0000a0 d8 1d 06 bc 89 54 ad bc f2 a4 09 bd 40 a7 64 3c
       -0.008185826 -0.021158474 -0.03360457 0.013955891
0000b0 64 7c 7e bc 00 3d fb 3b 1e 01 81 bc 84 ac 15 3c
       -0.015532587 0.007667184 -0.015747603 0.009135369
0000c0 aa d8 97 3c b2 86 3e bc c8 73 08 bc ce 82 a3 3c
       0.01853593 -0.011628794 -0.008328386 0.019959833
0000d0 9c 6f 23 3d a8 d3 16 bd 44 54 f7 bc 4d 3f 11 bd
       0.03990136 -0.036822945 -0.030191548 -0.03546076
0000e0 4c 7c 8c 3c 28 17 ee 3c a9 e6 0d bd f8 1c c3 3b
       0.017149113 0.029063776 -0.034643803 0.005954381
0000f0 20 65 ac 3b 0c 7c d0 3c 6e d4 02 3d 3c b7 c4 bc
       0.0052610785 0.025449775 0.03194087 -0.024013154
000100 a0 f9 29 3b 24 13 7a 3c 65 98 9d bc e2 65 9d 3c
       0.0025936142 0.015263353 -0.019237706 0.01921362
000110 e8 34 d9 bb 50 e0 33 3b ce a9 02 3d 14 f9 e9 3c
       -0.0066286214 0.0027446933 0.03190022 0.028561153
000120 ae 4e 8d 3c c8 e0 0c 3d f2 85 0d 3d d4 db c5 3c
       0.017249431 0.034394056 0.03455157 0.024152674
000130 b4 c0 ca 3c 69 c7 1e bd 5c d4 13 bc 68 56 90 bb
       0.024750091 -0.03876439 -0.009022798 -0.0044048317
000140 88 e3 ba 3c 40 fd 15 3d 0b ca 13 bd c0 4d 21 3d
       0.022813573 0.03661847 -0.036081355 0.03938079
000150 18 03 a9 bc 08 5e a1 3c ef 2b 9d bc 4c f9 d4 3c
       -0.020631358 0.019698158 -0.019185988 0.02599778
000160 d4 d2 00 3d 1c f9 e5 3c d3 32 ca bc 14 61 1c bd
       0.03145106 0.028072886 -0.024682438 -0.03817852
000170 d4 8e 06 3d 5c 0d 63 bc 04 b6 b5 3c 10 60 28 bb
       0.032851055 -0.013858166 0.022181518 -0.0025692023
000180 ec 8a 09 bc f0 c9 ca bb e0 5a 42 bc c0 5a cc 3a
       -0.008394938 -0.0061886236 -0.011862487 0.001559101
000190 e7 38 f1 bc 00 3d 67 bc 98 be 20 bd 50 f2 b0 3c
       -0.029446078 -0.014113665 -0.039244264 0.021599919
0001a0 cc 1d 2e 3c 28 bd 61 bc d0 be 0e 3d 00 ba e2 b8
       0.010627221 -0.0137780085 0.03484994 -0.00010811165
0001b0 5e 5d 84 3c db 44 b1 bc ec 65 ba 3c 08 a5 61 bc
       0.016157802 -0.021639278 0.022753678 -0.013772257
0001c0 88 53 08 3c 0f 46 01 bd a1 88 20 bd c0 27 59 3b
       0.008320697 -0.031560954 -0.0391928 0.0033135265
0001d0 d8 ea ec 3c d2 42 21 3d 40 6a b4 bc 1e 14 16 3d
       0.028920576 0.039370365 -0.02202332 0.03664028
0001e0 64 30 23 bd 5c 69 f8 bc 5c 60 b8 3c 6b cf 8b bc
       -0.03984107 -0.030323677 0.022506885 -0.017066678
0001f0 d4 a7 e2 3c 54 87 fa bc 60 e5 a4 3a 54 03 aa 3c
       0.027667917 -0.030582108 0.0012580566 0.02075354
000200 3b 38 a3 bc c0 59 38 3c d4 8a 2c 3c c3 0b b5 bc
       -0.019924274 0.011251867 0.010531146 -0.022100335
000210 00 68 2c ba 1d 05 d1 bc e0 0f e5 ba a2 cd 1c 3d
       -0.00065767765 -0.025515134 -0.0017476045 0.038282044
000220 ea 25 0c bd c1 12 25 bd 6b 52 0d bd c8 f0 7a 3c
       -0.034215845 -0.04030109 -0.034502428 0.015316196
000230 45 d8 90 bc 0c 63 6d bc 88 fe 9f 3c d0 f6 a4 bc
       -0.01768125 -0.014488947 0.01953055 -0.02013722
000240 5c 17 c7 bc 40 49 31 bb ec 4a d2 3c 38 9f 1c bc
       -0.02430313 -0.0027051717 0.025670491 -0.009559445
000250 26 36 10 bd c0 9f d7 bb 34 8e 4a 3c 57 e2 c1 bc
       -0.03520789 -0.006580323 0.012363005 -0.023667498
000260 a6 22 1b 3d f9 15 db bc d0 3b 2f 3c b7 f7 fa bc
       0.03787484 -0.026743876 0.010695413 -0.030635698
000270 28 0d 89 3b 6e 2c 15 3d c0 ec e7 3c f8 71 81 bb
       0.0041824766 0.036419325 0.028311133 -0.0039503537
000280 a0 ae 46 3c d8 c3 60 bc 8b b1 85 bc 74 1f 0a 3d
       0.012126595 -0.013718568 -0.01632001 0.033721402
000290 1c 90 1b bd 9c 0d e4 3c 68 b2 70 3c 54 ef e9 bc
       -0.03797923 0.02783852 0.014690973 -0.028556503
0002a0 ca cc 82 bc a7 22 20 bd 2c 55 2f 3c 00 13 fb 3b
       -0.015966792 -0.039095547 0.010701459 0.007662177
0002b0 e8 28 e6 3c 2e 73 17 3d fc 0d d9 3c 64 ef 25 3d
       0.028095677 0.03697508 0.026495926 0.040511504
0002c0 60 03 60 bb 09 16 d5 bc 9c d1 09 bd f8 9c a3 bc
       -0.00341817 -0.026011484 -0.033647165 -0.01997231
0002d0 44 e9 fd 3c 08 f4 6e 3c 50 20 20 3d 48 8d dd bc
       0.030995019 0.014584549 0.039093316 -0.027044907
0002e0 e4 8f c7 3c 10 93 c6 bc c4 4a e1 bc 14 99 a8 bc
       0.024360605 -0.024240047 -0.027501471 -0.020580806
0002f0 f0 9c 25 3d 30 9d d9 3b 2e e2 1c 3d a4 49 8c 3c
       0.04043287 0.0066410527 0.03830164 0.017124958
000300 30 91 56 3b 42 1b 8f bc f8 57 bf bb 20 58 84 ba
       0.0032740347 -0.017469052 -0.005839344 -0.0010097064
000310 62 c8 62 bc 3c 83 f9 3c f8 c0 1f 3d f6 fe 63 bc
       -0.01384172 0.030458085 0.03900239 -0.013915768
000320 a4 39 21 3d 10 13 96 3c 52 5d 23 3d ea bf a8 3c
       0.03936161 0.018319637 0.03988392 0.020599324
000330 4e 45 0e bd 2a e7 10 3d 0c 48 a3 3c df aa f2 bc
       -0.034734063 0.035376705 0.019931816 -0.029622493
000340 a1 b1 05 bd 50 11 cf 3c 59 25 f5 bc 46 9a 3d bc
       -0.032640103 0.02527681 -0.029925035 -0.011572426
000350 e4 ac f1 bc 4a a7 d8 bc 5c 7a 1f 3d c0 49 93 bb
       -0.029501386 -0.026446957 0.03893505 -0.0044948757
000360 7c 26 b2 3c 3c c3 10 3d 84 41 d5 3c 50 a2 52 bc
       0.021746866 0.03534244 0.026032217 -0.012856081
000370 5a a0 ee bc fa eb 3e bc 88 12 0c bd 90 32 94 3b
       -0.029129196 -0.011652941 -0.03419736 0.004522629
000380 76 f6 9a bc 00 2d 32 bc 8b 21 9a bc 5c be de bc
       -0.01891635 -0.010874987 -0.018814823 -0.02719038
000390 f2 d9 26 bd 5c 20 d6 bc be d1 be bc 72 6b 19 bd
       -0.040735193 -0.026138477 -0.023293372 -0.037455983
0003a0 cc 62 c7 bc 90 25 aa 3b 84 ce d9 3c af 4f 98 bc
       -0.024339102 0.005192466 0.026587732 -0.018592684
0003b0 18 f2 90 3c a8 e7 4b 3c b8 3a aa 3c 40 7c 8a ba
       0.017693564 0.012445368 0.020779952 -0.0010565594
0003c0 f8 4b 77 3c b0 9a 86 bb 16 5d 79 bc 24 34 db bc
       0.015093796 -0.0041077957 -0.015219947 -0.026758261
0003d0 56 10 91 bc b4 cb 92 3c cc df e4 bc 00 e2 90 3a
       -0.017707985 0.017919399 -0.027938746 0.0011053681
0003e0 b0 1a 09 bb b8 1c 6f 3c e6 25 0f 3d 68 96 ef 3b
       -0.0020920448 0.014594249 0.034948252 0.007311631
0003f0 71 8b c5 bc dc 0d 01 bc 36 85 ad 3c 58 c5 fa 3c
       -0.024114342 -0.0078768395 0.021181684 0.030611679

linear1.bias f4 [120]
000000 c4 a5 fe bc 32 39 22 3d da b8 12 3d 78 a9 0e 3d
       -0.031084903 0.039605327 0.03582082 0.034829587
000010 39 b9 07 bd 00 79 85 39 10 47 0e 3b 50 c8 bf 3c
       -0.033135626 0.0002545789 0.0021709837 0.023410946
000020 80 9c fb 39 34 8c d9 3c 48 43 12 bd 44 be 1e 3d
       0.00047991052 0.026556112 -0.035708696 0.03875567
000030 32 f9 05 3d 0e 8d 88 bc 2e 2d 17 3d dc 74 e0 bc
       0.032708354 -0.016668823 0.03690832 -0.027399473
000040 08 fd 84 3b 4c ba 4f 3c b0 14 0a 3d e8 98 ee bb
       0.004058484 0.012678694 0.033711135 -0.0072814114
000050 41 7f c5 bc 18 6f 1b 3d 18 63 e2 bb 72 f4 9e 3c
       -0.024108531 0.037947744 -0.0069087856 0.01940367
000060 e8 f7 ef bc ac ee 0c bd fa 1c 47 bc 00 4c f0 3b
       -0.029293016 -0.034407303 -0.012152905 0.0073332787
000070 b0 ed 8e 3b d4 d2 5e bc b2 0c 5b bc d8 ad 57 bc
       0.0043618307 -0.01360007 -0.013369726 -0.013164006
000080 a0 93 14 bc fb 65 b4 bc 88 27 88 3b 14 3d f1 3c
       -0.0090684 -0.022021284 0.004155103 0.02944807
000090 30 ac 20 bd f4 59 79 3c 60 f9 3a bb c4 ff c9 3c
       -0.03922671 0.0152192 -0.0028529987 0.024658091
0000a0 60 38 0a bb 18 63 a3 3b 08 c3 1d 3d fe 85 07 bd
       -0.002109073 0.004986178 0.038516074 -0.03308677
0000b0 00 6c fb 3c 1c cf 18 3d c8 e6 17 3d 78 b8 22 bd
       0.030691147 0.03730689 0.037085325 -0.039726704
0000c0 94 13 b6 3c 2f 46 14 bd 82 f5 26 bc c0 a9 5f 3b
       0.022226132 -0.036199745 -0.01019037 0.0034128278
0000d0 68 4b 90 bb c0 98 86 3c 80 d8 88 ba 40 1b 20 3a
       -0.0044035204 0.016430259 -0.0010440499 0.0006107576
0000e0 c0 ed c5 3c 30 36 de 3b e8 1c 78 bc 9c 61 46 3c
       0.02416122 0.006781362 -0.015143611 0.012108233
0000f0 e6 77 55 bc c8 67 22 3d 0f 23 e2 bc ac 73 00 3d
       -0.013029074 0.039649755 -0.027604608 0.031360313
000100 ee ef 10 3d f6 a9 03 bd 84 66 07 bd 4d c4 19 bd
       0.035385065 -0.03214451 -0.03305675 -0.037540723
000110 f8 17 e7 3c c0 74 c7 3c b0 3c f9 3c e0 e5 c8 3c
       0.028209671 0.024347663 0.030424446 0.024523675
000120 20 ac 96 3c 20 f2 cf 3c 8c 43 ff 3c 0c 33 7e 3c
       0.018392622 0.025384009 0.031160139 0.0155151
000130 04 64 06 bc 90 74 6b bc e2 38 93 3c 24 82 23 3d
       -0.0082025565 -0.014371052 0.01797146 0.039919034
000140 1e ce 01 3d c2 db 9a bc 15 68 88 bc c2 1a 24 3d
       0.03169071 -0.018903617 -0.016651193 0.04006458
000150 34 6a df 3c a8 19 e5 bc 3c bb 7c bc c4 17 5d 3c
       0.027272321 -0.027966335 -0.0154254995 0.013494436
000160 d8 b0 dc 3c 80 9f 21 ba 28 df 8d 3c 74 4e 17 3d
       0.026939794 -0.000616543 0.017318323 0.036940053
000170 ec 9b cd bc 3e 3b 15 bd 94 e2 3d 3c 64 4c 15 3c
       -0.025098763 -0.03643345 0.011589665 0.009112451
000180 84 99 23 3d b4 f3 a3 3c 6e a3 26 3d 48 67 20 bd
       0.039941326 0.020013668 0.040683202 -0.039160997
000190 d0 d2 2b bb d0 60 4c 3b 34 c1 29 3c d2 fd 14 3d
       -0.0026218183 0.0031185634 0.010361005 0.036374874
0001a0 6f a7 15 bd 8c 09 bb 3c c0 fa f3 ba 34 f1 08 bc
       -0.03653663 0.0228317 -0.0018614158 -0.008358289
0001b0 00 f8 35 3a dc d3 b0 3c c0 29 81 3c a7 6f e9 bc
       0.0006941557 0.021585397 0.015766978 -0.028495623
0001c0 64 ab d7 bc 74 38 f4 3c c0 21 e0 3a 80 1e cb 39
       -0.026326843 0.029812075 0.0017099902 0.00038741902
0001d0 48 6a b3 3c f6 13 87 bc b0 ed 00 bd 12 30 f9 bc
       0.021901265 -0.01648901 -0.031476676 -0.03041843
