BP_MLP_CNN/GoodResult/best-99.26.pth (torch, 610763 bytes, 40 tensors)

conv1.weight f4 [32, 1, 3, 3]
00000000: 2643 cd3e 781d 023d 747b 123e c036 273e
00000010: 7ab5 bebe 2d35 96bd 21dc 66be 4612 8cbe
00000020: 54e9 10be 79f4 4f3e 1ead 563e d15f 7cbe
00000030: 2744 593d f27f 593e 9041 48be 97e6 653e
00000040: 4a6e 153e b0d1 a3be 5706 9f3e 5b6f 5b3e
00000050: eccb 153e d341 0e3e 2868 0f3e bf21 2c3d
00000060: 4dba b8be 86a3 4fbd 9c1f 1f3e 05c9 d63e
00000070: c9de 31be 0cfa 3d3e 75c6 1bbe fb56 c9be
00000080: 5640 72be cb8f 9d3e 6dbc 5fbe 1e56 92be
00000090: 26a3 1c3e 6b2c 51be 7249 8ebe 8e63 9c3e
000000a0: 2f17 c0bc 80a8 d4bd 4248 7dbe 8483 b4bd
000000b0: b859 89be 7182 d73d 1be1 a23e 69d8 4e3e
000000c0: ca5f 7d3e 6bcf 9abe 7493 733e 7a10 9ebe
000000d0: a7ab 38be 0ac9 81be ae1b a63d fb6a 933e
000000e0: 8ffd 853c 1d6a bfbd 7262 91be c036 3f37
000000f0: d238 d43d e839 5d3e 4cfe 44be 177c 11be
00000100: 8c30 903c 7f83 84bc a31c aa3e a226 453d
00000110: 6619 7dbe c648 533e f414 9f3d 2cb7 4abe
00000120: 460f cabd 5612 ab3e 3fcf 233e a48e 9d3e
00000130: 9613 cfbd 9396 c03d 4fa3 eabd af94 efbd
00000140: 0add 913e 32cf 323c 5d4c 7dbe 0ae5 5d3e
00000150: 07fe 5a3e 68aa 793e 9551 31be 868f 3fbe
00000160: ae85 b3be 6f83 5a3e b823 8fbe 5802 933e
00000170: 3e27 79be 0283 a6bd 018b 843e 1b57 81bd
00000180: df86 05be 336f 033e baab 81be ea21 1fbe
00000190: 0b2d 623e ac0d 29be 8148 47be be6b 813e
000001a0: 2680 023e edb0 c5be f154 a33e d4e0 793d
000001b0: 1c71 523e 3036 1e3e 1103 143e 823e f6bd
000001c0: 96b2 b6be 5025 a9bd 3993 093e c810 9d3e
000001d0: 580a 663e e043 db3b be02 51be 6cdb 2dbe
000001e0: 1e93 0f3e a180 b03d 1f9f 503e 0221 963e
000001f0: 3d97 df3d 6ade a3be c8ae 5dbe b7d8 c53d
00000200: a01d e13d e0a8 3dbe 88d9 873e 9862 8f3e
00000210: d7f1 c3bc af01 86be e6e9 02be bde4 1e3d
00000220: b127 63be 9ed5 83be 3887 8ebc 42d9 833c
00000230: e3cb 003e b4d7 4f3e 3507 843e 7865 3dbe
00000240: b44b 3cbe 0b7b b0be 9d19 38be 3a04 c8be
00000250: 292c b5be e712 06bd 1a68 99be 26fa a83e
00000260: 867a a3be 0cea 9f3e 3435 29be 5819 e63d
00000270: 6dc7 aa3b 3dc3 3f3d dd09 61be 3590 0c3e
00000280: 5543 c6bd c0a5 613e 3a5e d03d aee3 243e
00000290: 8632 6d3e 4af0 79be 64e5 e93c 3b15 653e
000002a0: ac54 043c 0ea6 d93d b9cc 823e 321c eebd
000002b0: 71c4 193d f436 9cbe f1ff 773e 17fc a5be
000002c0: e897 51be 8073 8a3e ddea 6f3e 02c5 3cbe
000002d0: 7de7 83ba 5475 1ebe b734 963d ec49 9d3e
000002e0: 3090 17be 5475 a9be 1113 12be 14e9 903e
000002f0: 026a ac3e 22d7 f7bd cda8 7abe 2a30 9abe
00000300: 1bab b5bd dad3 4a3e 4ac4 b23e 379b de3d
00000310: d6f5 fa3b 872d fa3c 9dc0 d03d 987a 623e
00000320: 77c8 57be a6c8 943e 6a8f 4cbe 0ce1 9cbc
00000330: 071b a63e 7327 723c 474d 0fbe 5f96 ecbd
00000340: 2c24 cb3c 0204 bdbd 0d28 003e 22e4 3d3e
00000350: 20bc da3d 5941 d83d 3dbe 4f3d c125 a03e
00000360: d2c4 573e 38b6 113e 6007 69be 24e0 793e
00000370: c499 4f3e 7840 47be 784c 73be 24f8 8a3e
00000380: 0a99 233d 7e90 bcbd ee6a 13be be9b eebd
00000390: ec4a 2e3d 1fda 393e efed 5bbe f96d 463e
000003a0: 37be 903e 1ed2 313d 1708 7cbd cb0a adbe
000003b0: c831 90be 6713 ecbd e503 053b 8961 853e
000003c0: 9b90 dd3d fdbb a93e f055 d33d 40ff 07be
000003d0: e92f 81be d0ee 1abd 9a27 833e d0dc 32be
000003e0: 1a10 3abe 0983 a83e 623c 8c3e 98d3 b73e
000003f0: bad0 86be d8ba 63be d27b 9e3e f798 b83e
0.40090293 0.031766385 0.14304906 0.16329479 -0.3724783 -0.07334361 -0.2254491 -0.27357692
-0.14151508 0.20308103 0.20964476 -0.24645926 0.05304351 0.21240214 -0.1955626 0.22451244
0.14592853 -0.31995916 0.31059524 0.21429197 0.14628571 0.13892297 0.14004576 0.04202437
-0.36079636 -0.050693057 0.15539402 0.4195024 -0.17370142 0.18552417 -0.15212424 -0.39324173
-0.23657355 0.30773768 -0.21849222 -0.28581327 0.15296611 -0.204271 -0.2779041 0.30544704
-0.023448555 -0.10383701 -0.24734595 -0.08814147 -0.26826262 0.105229266 0.31812367 0.20199741
0.24743572 -0.30236372 0.23786718 -0.30871946 -0.1803423 -0.25348693 0.08110748 0.28792557
0.016356258 -0.093464114 -0.2839542 1.1397235e-05 0.103624 0.2160412 -0.19237632 -0.14207493
0.017601274 -0.016175983 0.33224973 0.048132546 -0.2471672 0.2063323 0.07767668 -0.19796437
-0.098661944 0.33412427 0.15997027 0.3077289 -0.101111576 0.0940372 -0.1145693 -0.11698281
0.28488952 0.010913657 -0.24736162 0.21669403 0.21385966 0.24381411 -0.17316277 -0.18707094
-0.35062927 0.213392 -0.2795694 0.28712726 -0.24331376 -0.081304565 0.25887302 -0.06315442
-0.1303973 0.12835388 -0.2532633 -0.15540281 0.22087495 -0.16509122 -0.19461252 0.25277513
0.12744197 -0.38611546 0.31900743 0.06100543 0.2055096 0.15450358 0.14454295 -0.12023641
-0.35683125 -0.0825907 0.13435067 0.30676866 0.22464883 0.006691441 -0.20411202 -0.16978234
0.14020965 0.08618284 0.203732 0.29322058 0.10917518 -0.32005626 -0.21648705 0.09660476
0.10991979 -0.18521452 0.2653315 0.2800491 -0.02391903 -0.2617316 -0.12784538 0.03879236
-0.2218311 -0.25748914 -0.017398462 0.016094808 0.12577777 0.20297128 0.2578675 -0.18495739
-0.18388253 -0.34468874 -0.1797852 -0.39065725 -0.35385254 -0.03273287 -0.29962236 0.33003348
-0.31929415 0.3123325 -0.16524202 0.11235303 0.0052117617 0.046817053 -0.21976419 0.13726886
-0.09680811 0.22035885 0.10174222 0.16102478 0.23163804 -0.24408069 0.028551765 0.2237138
0.008076828 0.106273755 0.25546816 -0.116264716 0.037540857 -0.30510676 0.24218728 -0.32418892
-0.20468104 0.27041245 0.23429437 -0.18434528 -0.0010063496 -0.15474445 0.07334273 0.3072046
-0.14801097 -0.33097327 -0.14265086 0.28302824 0.33674628 -0.1210158 -0.24478455 -0.3011487
-0.088705264 0.19807377 0.34915382 0.10869449 0.0076587005 0.030539287 0.10192988 0.22117078
-0.21072565 0.29059333 -0.19976583 -0.01915028 0.32442495 0.014779913 -0.13994323 -0.115521185
0.024797522 -0.0922928 0.12515278 0.18544057 0.10680413 0.10559339 0.050718535 0.31278804
0.21071175 0.14229667 -0.2275672 0.24401909 0.202735 -0.19458187 -0.2375964 0.2714244
0.03994087 -0.09207247 -0.14396259 -0.11650799 0.04255192 0.18149613 -0.21477483 0.19377889
0.28270122 0.043413274 -0.061531153 -0.33797297 -0.2816298 -0.11527138 0.002029651 0.26050976
0.10818597 0.33151236 0.10319126 -0.13280964 -0.25231865 -0.037825406 0.2561615 -0.17467046
-0.18170205 0.32912472 0.27389818 0.3590362 -0.2633112 -0.22239244 0.30953842 0.36054203

conv1.bias f4 [32]
00000000: baaf 0a3d 6407 93be 0b20 273e af99 92be
00000010: a3c7 d7bc b2db 8e3e 0ce1 36be 84f3 303e
00000020: c660 ba3d 0319 28bd 2d4a aa3b c7c1 44be
00000030: 58fb 86be dabb 283e 52ed 703e b4f9 a5be
00000040: 26e7 843e f685 e53b ba01 9abe dc28 83be
00000050: efa3 883e cfdb 5cbe 1a66 973e 3150 81be
00000060: 7980 97be eafc 673e d5d8 a8be 83fa 053e
00000070: 2d7c 7f3c 16d5 82be 9382 81be 1ade 543e
0.033858992 -0.28716576 0.16320817 -0.28632876 -0.026340311 0.2790199 -0.17859286 0.17280394
0.09100489 -0.041039478 0.0051968307 -0.19214545 -0.26363635 0.1647791 0.2352803 -0.3241707
0.25957602 0.007004495 -0.30079442 -0.2561711 0.2668757 -0.21568225 0.29570085 -0.25256494
-0.29590204 0.22655073 -0.3297793 0.13083844 0.015593571 -0.25553197 -0.25294933 0.2078785

conv2.weight f4 [32, 32, 3, 3]
00000000: 6ed0 1ebd f8e7 003d 2969 54bd c93a 533d
00000010: 9754 523c a2a0 093d 2220 56bd e2e1 2d3c
00000020: 4682 643b 5fa7 c03c 5a83 85bc 8edc 8fbd
00000030: 1318 f0bc 1e7a cbbc 3ea3 5bbd ad37 563c
00000040: 6a4f 26bc 88fd 6dbd 3cb8 503d bc6d fdbc
00000050: bd19 19bd f732 a7bc c184 863d 73fc 533d
00000060: 25a8 fabc 4799 253c 1b87 96bc de5d 9cbd
00000070: a928 893c f3a6 d5bc 3d39 2bbd 358b 80bd
00000080: 2fa7 7cbd 4216 2ab9 f6ce 893d 1583 9ebc
00000090: 74be 023c ae26 6a3b ed96 0cbd 2e59 61bb
000000a0: fcd8 02bc b56c 3f3d ec07 c7bd 17dc 39bd
000000b0: b29d 8b3c 7c02 ca3c ac25 d7bc 795e 72bc
000000c0: 3b26 833d 0181 2c3d a569 89bc d47c 383d
000000d0: c828 813d 5a50 fa3c d0ee f7bc 58cf 1b3d
000000e0: ddcd cfbc 05e7 143d a2ea 26bd 5054 c5bc
000000f0: e6e9 6f3c 90b9 3b3c 3068 9c3c 9d51 1ebd
00000100: e4ab 393d 102c 0e3b 48ca 8cbd bd0c 94bd
00000110: 8936 bdbb 3004 c13c bb12 9f3c 3013 37bd
00000120: b095 d23c eda9 133c d399 163d bc45 0fbd
00000130: b77d d0bc 1d28 223c 5e24 fa3c 3d23 593c
00000140: 86cc 433d fc80 ac34 25ae 8fbb cb8a 12bd
00000150: 698a 68bc 2991 86bc dcfe 023d 2145 14bd
00000160: 44f3 72bc 65af 923c 9608 81bd 48a8 023d
00000170: 7dc0 66bd 1562 d43c e322 94bc 813a debc
00000180: 7172 28bb 2b4d 38bd 9898 43bc fadf ddbc
00000190: c21d 5ebd 40e9 453c 83e0 66bd 34c1 a7bd
000001a0: 2f31 0cbd 6fcb d2bd 4c0d f13b 455d 59bd
000001b0: 53dc 06bb 05c7 53bc e296 b9bc 229a 8dbb
000001c0: 44c3 2c3d 89be 8cbb fc14 a53d 1f8f 8b3d
000001d0: 7e68 4d3d ef32 e63c e2cd ad39 845e 993c
000001e0: be36 0abd cb53 42bd 379b 72bd e255 f3bb
000001f0: b8d2 71bb cb36 bdbc 950a 343c 1359 85bd
00000200: ad55 003d 4aea 8a3b f959 a73c 06e8 0dbd
00000210: 3b8e 5ebd 6557 373c 1854 9c3d 6c1e 4d3c
00000220: a8ac 773d 826e 4b3d 53b5 4dbd 89ca fcbc
00000230: 575d 45bc 1c7f 193d 1fd5 dfbc 8f8f 1abb
00000240: def7 6fbd 8c25 b3b8 d49a 103d 2622 cebc
00000250: 52f6 08bd 0460 00bd a550 303d 2a14 eebb
00000260: a207 8ebd 85d0 8d3d 4dac 4dbd 6f1d ea3c
00000270: 09e9 0e3d d5ea 49bd a3e4 12bd 4112 1f3d
00000280: e02c 5e3c f8df 1abd 81f6 1cbd da53 c73c
00000290: 5877 1e3d cf05 d1bc 1b53 1f3d ec0c 253d
000002a0: ac89 43bc 929e 5239 21af e83c 9f8f 243d
000002b0: 47ba 2fbd 9ba7 03bc 9d24 c9bd 5757 84bd
000002c0: 2e26 afbd 5d9c 453d 484b 423c 5f10 54bc
000002d0: 6637 853d 83bc 393d c951 a93b 1e77 6ebd
000002e0: b241 073d d804 043c 9604 10bd 2ebe 37bd
000002f0: bb5c 793d 733d 16bd 92a7 da3c dfc6 0d3d
00000300: ec0a a2bd a83b c3bb 15f0 8cbb ee09 063d
00000310: 67f7 95bc 893c 093c 2a60 5ebd 8bb4 4abc
00000320: c2c1 1abd 4834 e03c ddb0 9fbd 85ba 23bd
00000330: 692b 223d 3e75 17bc 4c90 03bd 65b6 8a3d
00000340: fe51 d03b 7f0d 723d d35c 96bb 22a5 72bd
00000350: ad03 753b 94d1 9fbb 3fa5 803c 471e 47bd
00000360: e2f6 533d a0a3 e9ba 08be 64bd d729 1fbd
00000370: f49b b1bc 86ee 843c 6564 81bc 0f32 f53c
00000380: db28 8dbb 3507 4b3d dbe6 8b3d b57e 6dbc
00000390: 477f 9ebc ec21 2dbd 1765 88bd 83de 67bc
000003a0: e4f8 8d3d 5b5c db3c 9f1d 8b3d cb71 523b
000003b0: 9371 95bc 01ac f13c 3590 86bd d911 13bd
000003c0: 49f7 7abc 6442 8a3c a46f 013d 1e27 9c3c
000003d0: c061 593c 6aba 113d 0f48 68bd 2027 e83c
000003e0: 390e 3fbd fbc2 8b3d 2b4b 983b 3c54 223d
000003f0: 0df5 803d 5f7d 0b3c a9c6 f3bb 9163 073d
-0.038772993 0.031471223 -0.0518581 0.051569734 0.012837551 0.033600457 -0.052276738 0.010612937
0.0034867688 0.023517309 -0.016297985 -0.07024489 -0.029308354 -0.024838503 -0.053622477 0.013074798
-0.01015077 -0.058103114 0.05095695 -0.030936114 -0.03737806 -0.020410044 0.065682895 0.051754426
-0.030597756 0.010107345 -0.01837497 -0.07635091 0.016743021 -0.026080584 -0.041802634 -0.06276552
-0.061682876 -0.00016220755 0.06728928 -0.019349614 0.007979978 0.0035728621 -0.03432362 -0.003438543
-0.007986303 0.04673453 -0.09718308 -0.04537591 0.017042968 0.024659388 -0.02626308 -0.014793032
0.06403776 0.042115215 -0.016774008 0.04504092 0.063066065 0.030555893 -0.030265242 0.038039535
-0.025366718 0.03635313 -0.040751107 -0.024088055 0.014643168 0.011457816 0.01909265 -0.03865205
0.045329943 0.0021693744 -0.068745196 -0.07228992 -0.0057743234 0.023561567 0.019418111 -0.044696033
0.025706142 0.009012681 0.036767792 -0.034978613 -0.02545057 0.009897259 0.03053492 0.01325303
0.04780247 3.2131345e-07 -0.0043847733 -0.035776895 -0.014193156 -0.01642664 0.031981334 -0.03619874
-0.014828507 0.0179059 -0.06300466 0.031898767 -0.056335915 0.025925675 -0.018083042 -0.027127506
-0.0025702978 -0.044995468 -0.011938237 -0.02708434 -0.054227598 0.012079537 -0.056366455 -0.081911474
-0.034226593 -0.10292708 0.0073563214 -0.053067464 -0.00205781 -0.012925868 -0.022654954 -0.0043213526
0.042178407 -0.0042951745 0.08060643 0.068144076 0.05014848 0.028100459 0.00033150526 0.018721826
-0.033743612 -0.047443192 -0.059230056 -0.0074260095 -0.003689928 -0.023097416 0.010988851 -0.0651113
0.031331707 0.004239355 0.020428644 -0.034645103 -0.05433486 0.01119027 0.07633227 0.01251946
0.060467392 0.049665935 -0.050221752 -0.030858295 -0.01204618 0.037474737 -0.027323304 -0.0023584103
-0.058585994 -8.542379e-05 0.035303906 -0.025162768 -0.033438034 -0.031341568 0.04304566 -0.0072655873
-0.069350496 0.069245376 -0.050213147 0.028578488 0.03489021 -0.04929622 -0.035862576 0.038835768
0.013560504 -0.03781125 -0.038321022 0.024331976 0.038688034 -0.025515465 0.038897615 0.040295526
-0.011934679 0.00020086233 0.02840382 0.04017603 -0.042902257 -0.008035566 -0.098214366 -0.06461971
-0.08552204 0.048244823 0.011858769 -0.012943356 0.06504707 0.045345794 0.0051672203 -0.058219068
0.033021636 0.008057795 -0.035160623 -0.044859104 0.06087945 -0.036679696 0.026691232 0.034613486
-0.079122394 -0.0059580393 -0.004301081 0.032724313 -0.018306447 0.008376249 -0.054290928 -0.012372146
-0.037782438 0.02736868 -0.07797406 -0.0399728 0.03959218 -0.009244261 -0.032120034 0.0677307
0.0063574305 0.059094902 -0.004588702 -0.059239514 0.0037386224 -0.0048772786 0.015703795 -0.04861286
0.051749118 -0.0017825253 -0.05584529 -0.03885826 -0.02168081 0.016227018 -0.015794942 0.029931096
-0.004307849 0.04956742 0.068311416 -0.014495541 -0.0193478 -0.04226868 -0.06659906 -0.014152172
0.06932238 0.026777437 0.06792759 0.0032111283 -0.018242633 0.029500963 -0.06570474 -0.035905693
-0.015317746 0.01687736 0.03160061 0.019061621 0.013267934 0.03557817 -0.056709345 0.028338969
-0.046644423 0.06824299 0.0046476326 0.039631113 0.0629674 0.0085137775 -0.0074394536 0.03305394

conv2.bias f4 [32]
00000000: e62a 093d 32de 4f3d 0535 37bd 08ec 0a3d
00000010: b753 383d 93a1 d6b9 0a04 843c 8963 6ebc
00000020: 94dc a13c e08c 2a3d 364e 6dbd 0313 bc3c
00000030: 101e df3c dbea ae3c e8f7 193d a770 6e3d
00000040: 7601 6dba a5f9 4dbd 2f0b 6cbc 263e 0f3d
00000050: 7d7f 5fbd adce 923c 0e41 613b fb24 13bc
00000060: 88b0 84bc 61a2 bdbc 15fd 8f3d 6727 3ebd
00000070: d6f9 e6bc 922d 38bd 5506 f33b ee23 8ebc
0.033488177 0.05074901 -0.044728298 0.033916503 0.04500171 -0.00040937643 0.016115207 -0.014550098
0.0197585 0.041638255 -0.057935916 0.022958284 0.027236015 0.021352222 0.037589937 0.058212902
-0.000904105 -0.050286908 -0.014406963 0.03497138 -0.05456494 0.017920816 0.003437105 -0.008980985
-0.016197458 -0.023148717 0.070306934 -0.046424296 -0.028195303 -0.044965334 0.0074165263 -0.017351117

conv3.weight f4 [64, 32, 3, 3]
00000000: 4a90 34bd 2b7b 283b 4ab3 0abd ad3e a93c
00000010: 1c20 113d 9f44 f73b d479 d6bc a968 1f3d
00000020: 0268 923d 50e2 383d a9e7 453d a8fb 70bc
00000030: 98f0 21bd f2de f63c 27e4 59bd c364 bfbd
00000040: 5a34 eabd 4a73 bfbd d86f 1b3d f32b 113c
00000050: 6314 1f3d f15e c63c 26a9 b73b bab0 afbc
00000060: f7d3 483d f04a 92bc 7ced a13d 6971 d83c
00000070: 9f96 153d 92df 7c3d 3adb a33d 3bc6 3d3d
00000080: ab13 cebb e889 9cbc 534e 05bd d0ca ee3c
00000090: e2c9 093d e958 19bd f58a e238 2aa7 25bd
000000a0: b9a3 ddbd 9f74 9fbd 2ddb abbc 8205 8ebd
000000b0: a772 8bbd 097f a3bb a64a 7f3d a552 8fbc
000000c0: c9c2 d53a 67ac 593c faf3 223d 3c02 583d
000000d0: 882b 073b f58e 883b 1623 fe3c 27a4 7abd
000000e0: 0bac ff3c ed8d f6bc a7cc 96bd 2384 56bd
000000f0: b49c c7bc a233 fbbd 1444 cfbc e3f9 8fbc
00000100: 2b3b 5b3d 4b71 383c 4bbc c7bc 4b78 973d
00000110: 1592 42bc 8eeb 11bd 48ca 353d 4533 733d
00000120: f92a dabc 8bdd 4bbc 4908 f3bc a362 fdbd
00000130: 02d7 43bd a40f 94bd 1f35 f1bd 60d7 7abd
00000140: 2354 b9bd 3027 ad3c 8b65 283d 5bcb 5a3d
00000150: 4998 7cbd c181 29bc 5b0c b23d 51cc ff3b
00000160: 9f47 233d fed6 46bc 915f 79bc 66a6 aabc
00000170: b7cf 273d 5080 38bc a4ab 02bc f104 793d
00000180: dd52 52bd 3d44 05bd 0601 293d 456b eb3c
00000190: f5f1 21bd fa82 843b e31a c9bc 5dab d93c
000001a0: 7957 0f3d b1a0 0cbd 594b 7e3b d0db 023d
000001b0: 6c03 b23d 06b0 693d a5fe 68bc f51a 093d
000001c0: d5d5 64bd 7ab0 e93b 557c f3bd a564 cbbc
000001d0: c288 bebd 16c8 a43d 1138 8c3b d3c5 113d
000001e0: d504 0fbd a36b 85bc b50b 84bd 0d4e abbc
000001f0: 15d8 e0bd d215 5fbd 0cc5 0abd 1d13 3fbd
00000200: ca27 87bd 03c3 483b 1b7c 8dbd 9924 7abd
00000210: b04a a2bb 9b1c 093d d797 173d c3e5 b93c
00000220: 72e1 7f3c a0ed 163d da5d 85bc 64ea cfbc
00000230: 3ab2 cfba 9fcb cf39 5b43 b3bc 0623 49bd
00000240: 65f2 a53b 7b03 513d 7c87 4fbb 2ea0 acbc
00000250: 06ce eb3b 6720 0f3d abc2 babc 0147 04be
00000260: 9518 94bd 6225 f5ba 5993 173d adcd 2ebd
00000270: 5034 f73c 6f81 353d 237b b03b cbb9 4dbd
00000280: a5df 6d3d 5ae2 6fbc 9bf5 363d 172a 0c3d
00000290: bbb7 013b d3af c53c 9830 c4bc 37ab b03c
000002a0: 6eba 1a3d 431c bdbb 2c18 973d 0253 f7bc
000002b0: ebf3 9f3c 173a 223d a06c 5e3c 06a6 363c
000002c0: 4ae0 a93d 33e1 32b8 09df 65bc 7097 863c
000002d0: a7d1 10bd 9e5a 673c 2fcf 8e3d 192c 83bb
000002e0: 5b20 2c3d c457 62bc 884b fa3b 74ac 07bc
000002f0: a830 023d bfe8 893c 6473 b0bc ad02 15bc
00000300: e6fc edbc 00c4 933c e204 963c 54e2 85bc
00000310: 4892 f03c c3f6 323d c0c6 8e3d 4f97 ac3b
00000320: d7e1 e83c a303 353b d687 c8bc 1287 20bd
00000330: d19c 05bd 1e2c c43c 02e6 a2bd 2385 93bb
00000340: a560 973d 4b09 443d 53ed b73b 2804 ef3c
00000350: 31bf d33c a069 43bc c16f a23a 89d6 adbc
00000360: 63c7 41bd e5e5 ce3a e627 2f3d 9bb8 f93c
00000370: e49f 2b3d 0d3c 94bc 5ee8 343d 9397 a03a
00000380: 0f68 063d 61a3 a3b7 4979 db3c 09b4 423d
00000390: 7fd0 69bd c45c 5d3d 8abf 183d 6ceb f7bd
000003a0: 5517 8cbd 1a58 39bd b375 18bd 6112 8abd
000003b0: 5f05 35bd 65c5 df3c 7710 64bd 1433 91bd
000003c0: 2168 6bbb 7fff aabb 3164 96bd 0a35 cd37
000003d0: 4af9 a03c 15c5 eebc fe87 333d 15a8 68ba
000003e0: 7f9b ffbb d318 5f3b ce60 93bc 3c8c 2ebd
000003f0: badb b23d 8480 d7bc 20ae 483d 7c27 af3b
-0.044082917 0.002570818 -0.03386239 0.020659769 0.035431013 0.007546022 -0.026181139 0.03891817
0.07148744 0.045137703 0.04831663 -0.014708437 -0.03953609 0.030135605 -0.0531961 -0.09345391
-0.114357665 -0.093481615 0.03794846 0.008860576 0.0388378 0.024215193 0.005604881 -0.021446574
0.04903027 -0.017857999 0.07906625 0.026421266 0.036520597 0.06173665 0.080007985 0.046331625
-0.0062889657 -0.019108728 -0.0325454 0.029149443 0.033639796 -0.037438307 0.000108024025 -0.040442623
-0.10822243 -0.077859156 -0.020978535 -0.06934644 -0.068089776 -0.004989509 0.06232705 -0.017495463
0.0016308661 0.013285733 0.039783455 0.052736506 0.0020625312 0.0041674324 0.03102259 -0.061191704
0.031209966 -0.030096972 -0.07363253 -0.05237211 -0.024366714 -0.122657076 -0.025301017 -0.01757521
0.053523224 0.01125748 -0.024381777 0.07395991 -0.011875649 -0.035625033 0.044382364 0.059375066
-0.02663182 -0.012442957 -0.029667037 -0.12372329 -0.04781247 -0.07229546 -0.1177771 -0.061240554
-0.09049251 0.02113685 0.041112464 0.05341659 -0.061668668 -0.010345877 0.08693763 0.007806339
0.039863225 -0.012136219 -0.015220539 -0.020831298 0.040969577 -0.011261061 -0.007975493 0.060795728
-0.051348556 -0.03253578 0.04126074 0.028737674 -0.03953739 0.004043934 -0.024548953 0.02657097
0.03499553 -0.034332935 0.0038802235 0.03194791 0.08692059 0.057052635 -0.014220868 0.033472974
-0.05586799 0.0071316333 -0.11888949 -0.024828264 -0.09303428 0.08045976 0.0042791446 0.03558905
-0.034916718 -0.016286677 -0.064475454 -0.020911241 -0.109787144 -0.05446417 -0.033879325 -0.046649087
-0.06599386 0.0030633814 -0.06908437 -0.06107006 -0.004952751 0.033474546 0.03701004 0.022692567
0.015617715 0.03684771 -0.016280103 -0.02538032 -0.0015845962 0.00039633826 -0.021882704 -0.049105667
0.005064296 0.05102871 -0.0031666448 -0.021072473 0.0071961908 0.03494301 -0.022797903 -0.12917711
-0.07231251 -0.0018703158 0.037005756 -0.042676616 0.030176312 0.04431289 0.005385773 -0.050226014
0.058074612 -0.014641369 0.04466782 0.034219828 0.001979335 0.024131691 -0.023948953 0.021566017
0.03777545 -0.0057711913 0.07377657 -0.030190948 0.019525489 0.03960618 0.013575703 0.0111479815
0.08294733 -4.264824e-05 -0.0140302265 0.016429633 -0.03535619 0.014120726 0.06973111 -0.0040030596
0.042023044 -0.01381487 0.0076383986 -0.008280862 0.031784683 0.016834615 -0.021539398 -0.009094876
-0.029051255 0.018037796 0.018312875 -0.016343273 0.029366627 0.04369236 0.06971502 0.005267061
0.028428001 0.0027620576 -0.024478834 -0.039191313 -0.032620255 0.023946818 -0.07954027 -0.004501955
0.0739148 0.047860425 0.005613008 0.029176787 0.025848003 -0.011927038 0.0012392924 -0.021220462
-0.04730929 0.0015785067 0.04276266 0.030483535 0.04190053 -0.01809504 0.044166915 0.0012252204
0.03281408 -1.9507193e-05 0.026791232 0.047534976 -0.057083603 0.054043546 0.03729204 -0.1210545
-0.06840388 -0.045250036 -0.03722162 -0.06741787 -0.044194575 0.027315805 -0.055679765 -0.070898205
-0.003592022 -0.005218446 -0.07343329 2.4462603e-05 0.01965012 -0.02914671 0.043830864 -0.0008875144
-0.007800519 0.0034041896 -0.017990496 -0.042614207 0.08733316 -0.026306398 0.048994184 0.005345283

conv3.bias f4 [64]
00000000: 686d 3cbd 391b 793d 0a02 df3b d6b5 b0bc
00000010: 1d2c 683b 9497 723c f7d1 893c c0c5 20bc
00000020: 926d fbbc 5c29 4f3b 9a13 a6bc 0d23 30bd
00000030: 3a37 6fbd 7696 0a3d d15e a9bd 5e4a 28bd
00000040: e97d 223d 9d4c 49bd ced4 2abc bd58 a7bc
00000050: 0346 bcbc e9d0 3dbb f6e9 d1bc 1437 58bd
00000060: f172 abbb 004e 0fbd f736 6ebc e710 aebb
00000070: 6c6e 9e3c 19b7 5bbd 7be7 16bd 3374 ca3b
00000080: ec2d 373d 6dc4 7bbb a4d5 8cbd 8d8f 36bc
00000090: 1a4f eabc 2df2 433d 7bf0 183d eae1 303d
000000a0: 664c 77bd 7a31 8fbc 9ca3 22bd 0b6c 44bc
000000b0: aa74 a8bc 13fd 113d b95f 63bd f8b7 48bd
000000c0: eb87 4c3d aa3b 76bd 9653 7dbd 95a0 0cba
000000d0: 791f c33a 56dc be3c 8e23 1f3d b20c c1bc
000000e0: 1228 52bd b750 40bd 3f94 0ebd 0b8c 3c3c
000000f0: b8f8 3c3d db2b 893c 259f 403c ec8f 1bbd
-0.046002775 0.060816977 0.006805663 -0.021571081 0.0035426684 0.014806647 0.016823752 -0.009812772
-0.030691896 0.0031610345 -0.020273019 -0.043002177 -0.058402278 0.033834897 -0.08270038 -0.041086547
0.03967086 -0.04914533 -0.010426713 -0.020428056 -0.022982603 -0.0028963631 -0.025624257 -0.0527869
-0.005232208 -0.034986496 -0.014539472 -0.0053120735 0.019339763 -0.053641412 -0.03684185 0.006178403
0.04472153 -0.003841664 -0.06876686 -0.011142624 -0.028602172 0.04783838 0.037338715 0.0431842
-0.060375594 -0.017479647 -0.03970681 -0.01198865 -0.020563442 0.03564174 -0.05551121 -0.04900357
0.04993431 -0.060115494 -0.061847292 -0.0005364505 0.0014886699 0.023298424 0.038852267 -0.023565624
-0.051307745 -0.046951976 -0.034809347 0.011507998 0.046135634 0.016744545 0.011756693 -0.03797905

conv4.weight f4 [64, 64, 3, 3]
00000000: 5201 b23b 7c5c f63c e0c5 023d a034 373c
00000010: 48be 183d 2508 aa3d e42f a1bc 5f22 0b3d
00000020: 3e02 6a3d da98 4dbc 187a fbbc fa99 ecbb
00000030: 7e76 d33a 5314 49bc 8b87 33bd 48a3 ffbc
00000040: f30b 8abd 9643 aebc 40da 15bb f4f2 ed3c
00000050: ee8f b23c bf3b 823d 4657 5c3c 75d1 f43c
00000060: 21ac 193d 9373 513d a300 683d a6d3 243d
00000070: 4cac f63c 5da3 34bd b222 ba3c 966d 92bb
00000080: 26e3 09bd 2ad2 5c3d 3efc 863c 5d06 92bd
00000090: 4a4a 05bd faa6 133c 1e90 d53a 92fd b7bc
000000a0: b4d3 ad3a c9e4 65bc f051 a73b b17d 253d
000000b0: 7556 46bc 8fab f13c 2e6b 803c 4758 4d3b
000000c0: aafa c1bc 8553 2abd 9053 9cbd 27bb e53a
000000d0: 8606 92bc 9714 88bc 1c3e ca3c fad3 b33c
000000e0: 5965 1dbd 5c05 6f3c 84ec 853c b170 22bd
000000f0: 3720 783d 01ac a33b 9849 2dbd bafa 153d
00000100: afb9 a1bc de13 3abb 9de0 a43c e43c 1a3c
00000110: 7509 0a3d 478b 483c c42f 1e3d 74c9 713c
00000120: e8c0 813b cf58 2b3d 499e 2ebc fea2 073d
00000130: 69ef ed3c 0779 59bd f52f 643d 361d 803d
00000140: 995b bd3c e8b4 013d 5efd ccbc eac1 203c
00000150: cb1b 8c3c d024 b6bc 1c0f 35bc 7d1d 033b
00000160: 801e 8bbc 5372 cf3c 418d c3bd 78fc 2a3d
00000170: 4e71 213d f576 41bd cfd9 173c 9da2 b23c
00000180: 5677 33bd 1aa3 153d 707d 993d 508e e43c
00000190: 3405 dcbb f6df c7bd 2db5 003b d1ac 0ebb
000001a0: f2eb 6cbd f0ea 51bd f83c 0d3d 31d7 f2bc
000001b0: f7fa 1b3d c7da efbc e979 aebc a45a 2f3d
000001c0: 80bf 2c3d 9478 cebc 49be af3c bb07 d63c
000001d0: 58ae a0bd 1473 cabb bf6a 1d3d b44d 44bd
000001e0: dc6f e2ba cedd c83c 29ef e3bd 6611 883d
000001f0: 6b6d f4bb c968 f9bd f44a 243c 5627 ec3b
00000200: 4038 2d3d c4e7 063b 39b3 64bc 37d4 a33c
00000210: 5145 003c c6b3 31bd f5c2 2bb9 80a7 ffbc
00000220: df6e 5bbd 75fc 80bd 7097 2ebd 4133 c2bd
00000230: cbf4 75bd 2892 8cbd 18dc f8bc 4e8a 59bd
00000240: 21c3 153c 6d39 f0bb 44f2 25bd 414c 113d
00000250: f1da 183d fec4 02bd f137 e33c 855f 883b
00000260: 1127 a43c bddf 823c e032 5d3d 00c5 593d
00000270: 92d9 99ba 9afa 443c 427b 9e3d a3bd 803d
00000280: fe15 713d 1053 023d 24b9 b1bd 5389 da3a
00000290: 1e6f abbb 7b45 21bd bc0f ea3c 211d 4d3d
000002a0: e057 f93b 6ae2 3e3d c2ac 6d3c b1c9 323c
000002b0: 517f 32bb 9a88 71bd 1cb0 babc bb70 ecbb
000002c0: 73d1 a3bd 2dc8 31bd c070 44bd 6529 a4bd
000002d0: 4722 47bd bb18 41bd 0644 d53c b150 94bd
000002e0: 1606 e2bb 20f4 313d b64f a4bc e809 d93c
000002f0: dab5 ac3c 4120 c4bd 8f3c 9abc 123b 95bc
00000300: 49c9 62bd 884b 8c3c c1e2 063d 9d3b 87bb
00000310: 0790 cb3c b757 783d 0d32 093d 73e0 5d3d
00000320: a07a 4abd bfd4 893c 2628 d1bb eff0 fd3c
00000330: 9a3b 583d 0c0e c4bc fd31 e7bb d567 873d
00000340: ebcb 553d 9fba 263d e865 a13c eddc 823d
00000350: 1bf1 023d 31d6 3c3c a97b 0a3d ac11 c93c
00000360: 2ccd 8cbc 561c 453d 288b 2a3d e430 26bc
00000370: 117c 1b3d a68f 023d 38fb 3e3d d679 d13b
00000380: 75ab 6e3d b336 c2bb b9e8 8abc 6bb3 5ebd
00000390: c196 693c c76a efbb 5383 63bd 9f26 793d
000003a0: 0569 e7bb 2131 6dbb b6a5 7eba ae67 8dbd
000003b0: 432c 0ebe 8cf2 173d 1e25 3dbc d582 babd
000003c0: fe5c ad3c 479d 3b3c f366 823b 1d08 b3bd
000003d0: f181 d5bb c709 15bc be3e 623b 3379 0cbc
000003e0: 932d 24bd fb0d 9e3c cec8 153c f710 903b
000003f0: dac6 67bd a8d0 093a 06de 37bd e311 203c
0.0054322863 0.030073397 0.03192699 0.01118198 0.03729084 0.08302335 -0.019676156 0.033968326
0.057131045 -0.01254865 -0.030697867 -0.007220504 0.0016133336 -0.012272912 -0.043830436 -0.031205788
-0.067405604 -0.021272462 -0.0022865683 0.029046513 0.021797147 0.06359052 0.013448542 0.029885033
0.03751767 0.05113561 0.056641232 0.040240906 0.030111454 -0.044101108 0.022721622 -0.00446863
-0.03366389 0.053911366 0.0164777 -0.0713012 -0.03254155 0.009011978 0.0016293561 -0.022459779
0.0013261945 -0.014031597 0.0051062033 0.04040307 -0.012105574 0.02950075 0.015676107 0.0031333135
-0.023679096 -0.041583557 -0.07633126 0.0017527089 -0.017825376 -0.01661138 0.02468782 0.021951664
-0.03842673 0.01458868 0.016348131 -0.039658252 0.060577597 0.0049948697 -0.042306513 0.036616065
-0.019741861 -0.002839319 0.020126635 0.0094139315 0.033700425 0.012240238 0.03861977 0.014757503
0.003959764 0.04183274 -0.010657855 0.033114426 0.029044824 -0.053093936 0.055709798 0.062555715
0.023114966 0.031666666 -0.025023159 0.009811858 0.017103096 -0.02223435 -0.011050966 0.002000659
-0.016982317 0.025323069 -0.095484264 0.04174468 0.039414696 -0.047232587 0.009268238 0.021806056
-0.04381498 0.0365325 0.074946284 0.027899891 -0.0067144874 -0.09759514 0.001963924 -0.0021770487
-0.057842202 -0.051249444 0.034481972 -0.029643627 0.038081136 -0.029279126 -0.021298366 0.04281105
0.042174816 -0.02520398 0.02145304 0.026126733 -0.078457534 -0.006178269 0.03843188 -0.047925666
-0.0017275768 0.024519827 -0.111296006 0.066439435 -0.0074593327 -0.12178189 0.010027636 0.0072068376
0.042289972 0.002058492 -0.013958746 0.019998653 0.007829026 -0.043384336 -0.00016380458 -0.0312078
-0.05357253 -0.06298152 -0.04262489 -0.09482432 -0.060047906 -0.068638146 -0.030378386 -0.053110413
0.009140761 -0.0073310644 -0.040514246 0.035473112 0.037318174 -0.031926148 0.027736636 0.0041617774
0.02003816 0.015975827 0.054003596 0.05316639 -0.0011737815 0.012022639 0.07738353 0.0628617
0.058858864 0.031817496 -0.08677891 0.0016673006 -0.005231752 -0.039372902 0.028571956 0.050076608
0.0076093525 0.046602644 0.014506521 0.010912345 -0.002723653 -0.058968164 -0.022789054 -0.007215587
-0.07998934 -0.043403793 -0.04795909 -0.08015708 -0.048616674 -0.047142725 0.026033413 -0.07241953
-0.006897698 0.043445706 -0.02005754 0.026493981 0.021082807 -0.095764644 -0.018827705 -0.018216643
-0.05536774 0.01712586 0.032931093 -0.0041269795 0.024848951 0.060630526 0.033494998 0.05416913
-0.04943335 0.016825078 -0.00638296 0.030998675 0.052791215 -0.02393248 -0.0070555196 0.06611601
0.052196424 0.04070532 0.019701913 0.063897945 0.031968217 0.011525677 0.033809338 0.02454456
-0.017187677 0.048122726 0.041636616 -0.010143492 0.037960116 0.031875275 0.0466263 0.006392698
0.058268983 -0.005926931 -0.016956674 -0.054370325 0.014257134 -0.00730643 -0.055545162 0.060827848
-0.00706208 -0.0036192613 -0.0009714024 -0.06904541 -0.13884072 0.037096545 -0.011544494 -0.091069855
0.021162506 0.011451072 0.0039795577 -0.08741782 -0.0065157344 -0.009096569 0.003452226 -0.008573818
-0.040082525 0.019293776 0.009142114 0.0043965536 -0.056586124 0.00052572275 -0.044889472 0.0097698895

conv4.bias f4 [64]
00000000: 8d8e 22bc bd17 013d 5334 1f3d 07b6 d9bb
00000010: 85a1 0cbc 6f05 993c 1f1c 183c 2a62 c43c
00000020: b6b0 183d 5c28 403d 1e81 08bd 1096 c23b
00000030: 4e01 a5bc b9c6 e5ba 43be 85bc 9b53 f23c
00000040: c5c9 a83c 2377 623a 7c4e 703c c533 38bc
00000050: d5f8 c03c 3478 163d a488 443d 52da 513c
00000060: 0bc5 9e3c 8f40 d03c ff4c c73c 3234 233c
00000070: 5dce 26bd 7122 ff3b 8f2c 3f3b f432 9bbc
00000080: d330 79bc e8a9 a7bb eb16 a03c 2756 2a3c
00000090: e356 1a3d 2d51 81bc 64b7 ae3c 683d b1ba
000000a0: b2a4 cabc 76b8 853c 3807 b6bc 99f3 88bb
000000b0: a881 51bd b501 a43b 2a79 e8bc 932a ea3c
000000c0: b8b1 d13c 3a4f 90bc 9c43 3cbd f0b3 fe3c
000000d0: bff7 1b3d b05e 2fbd 51b7 7d3c c1a7 3e3c
000000e0: b71b aebc 0af1 3f3d 70a4 a5bc d551 023d
000000f0: 5d30 bcbb 189a 36bc fc68 30ba 5c27 b6bc
-0.009921682 0.03151678 0.03886826 -0.006644014 -0.008583431 0.018679349 0.009284048 0.02397259
0.0372779 0.04691349 -0.03332626 0.005938299 -0.020142224 -0.0017530537 -0.016326075 0.029580882
0.020604024 0.00086389686 0.01466715 -0.011242812 0.023556152 0.03673573 0.047981873 0.012808399
0.019381067 0.025421409 0.024328707 0.009961175 -0.040724147 0.007786088 0.0029170846 -0.018945195
-0.0152093945 -0.00511669 0.019542178 0.010396517 0.037680518 -0.015785778 0.021327682 -0.0013522329
-0.024736736 0.01632331 -0.022220239 -0.0041794297 -0.05114904 0.0050050863 -0.028378088 0.028584754
0.025597438 -0.017615903 -0.045962915 0.03109166 0.038078066 -0.04281491 0.015485601 0.011636675
-0.02125345 0.046860732 -0.020220011 0.031816322 -0.00574307 -0.011145137 -0.0006729511 -0.022235565

linear1.weight f4 [120, 588]
00000000: 909a ad3c baf2 6abc 0e5b 833c c03a 6c3b
00000010: bc4d f63c 653f 12bd 0797 b5bc 4693 cdbc
00000020: 33aa b6bc 10d9 2c3b 10e7 cc3c 90cf 113d
00000030: b8a2 0c3d c097 133d 60af 1a3b 94b0 3bbc
00000040: cc49 0e3d 6abf 803c 440a 263d a0dd e5bc
00000050: 1c29 ef3c 54f9 0cbc dd06 fcbc 304a 613c
00000060: d420 c43c d867 da3c e459 073d 504e 9abb
00000070: ad0c 08bd ec8c 523c c831 b13b 507f 273b
00000080: 1782 cebc cb11 92bc 769d 04bd 68bc eb3c
00000090: 0880 fabb 0076 fcb9 4871 163d 8882 423c
000000a0: d81d 06bc 8954 adbc f2a4 09bd 40a7 643c
000000b0: 647c 7ebc 003d fb3b 1e01 81bc 84ac 153c
000000c0: aad8 973c b286 3ebc c873 08bc ce82 a33c
000000d0: 9c6f 233d a8d3 16bd 4454 f7bc 4d3f 11bd
000000e0: 4c7c 8c3c 2817 ee3c a9e6 0dbd f81c c33b
000000f0: 2065 ac3b 0c7c d03c 6ed4 023d 3cb7 c4bc
00000100: a0f9 293b 2413 7a3c 6598 9dbc e265 9d3c
00000110: e834 d9bb 50e0 333b cea9 023d 14f9 e93c
00000120: ae4e 8d3c c8e0 0c3d f285 0d3d d4db c53c
00000130: b4c0 ca3c 69c7 1ebd 5cd4 13bc 6856 90bb
00000140: 88e3 ba3c 40fd 153d 0bca 13bd c04d 213d
00000150: 1803 a9bc 085e a13c ef2b 9dbc 4cf9 d43c
00000160: d4d2 003d 1cf9 e53c d332 cabc 1461 1cbd
00000170: d48e 063d 5c0d 63bc 04b6 b53c 1060 28bb
00000180: ec8a 09bc f0c9 cabb e05a 42bc c05a cc3a
00000190: e738 f1bc 003d 67bc 98be 20bd 50f2 b03c
000001a0: cc1d 2e3c 28bd 61bc d0be 0e3d 00ba e2b8
000001b0: 5e5d 843c db44 b1bc ec65 ba3c 08a5 61bc
000001c0: 8853 083c 0f46 01bd a188 20bd c027 593b
000001d0: d8ea ec3c d242 213d 406a b4bc 1e14 163d
000001e0: 6430 23bd 5c69 f8bc 5c60 b83c 6bcf 8bbc
000001f0: d4a7 e23c 5487 fabc 60e5 a43a 5403 aa3c
00000200: 3b38 a3bc c059 383c d48a 2c3c c30b b5bc
00000210: 0068 2cba 1d05 d1bc e00f e5ba a2cd 1c3d
00000220: ea25 0cbd c112 25bd 6b52 0dbd c8f0 7a3c
00000230: 45d8 90bc 0c63 6dbc 88fe 9f3c d0f6 a4bc
00000240: 5c17 c7bc 4049 31bb ec4a d23c 389f 1cbc
00000250: 2636 10bd c09f d7bb 348e 4a3c 57e2 c1bc
00000260: a622 1b3d f915 dbbc d03b 2f3c b7f7 fabc
00000270: 280d 893b 6e2c 153d c0ec e73c f871 81bb
00000280: a0ae 463c d8c3 60bc 8bb1 85bc 741f 0a3d
00000290: 1c90 1bbd 9c0d e43c 68b2 703c 54ef e9bc
000002a0: cacc 82bc a722 20bd 2c55 2f3c 0013 fb3b
000002b0: e828 e63c 2e73 173d fc0d d93c 64ef 253d
000002c0: 6003 60bb 0916 d5bc 9cd1 09bd f89c a3bc
000002d0: 44e9 fd3c 08f4 6e3c 5020 203d 488d ddbc
000002e0: e48f c73c 1093 c6bc c44a e1bc 1499 a8bc
000002f0: f09c 253d 309d d93b 2ee2 1c3d a449 8c3c
00000300: 3091 563b 421b 8fbc f857 bfbb 2058 84ba
00000310: 62c8 62bc 3c83 f93c f8c0 1f3d f6fe 63bc
00000320: a439 213d 1013 963c 525d 233d eabf a83c
00000330: 4e45 0ebd 2ae7 103d 0c48 a33c dfaa f2bc
00000340: a1b1 05bd 5011 cf3c 5925 f5bc 469a 3dbc
00000350: e4ac f1bc 4aa7 d8bc 5c7a 1f3d c049 93bb
00000360: 7c26 b23c 3cc3 103d 8441 d53c 50a2 52bc
00000370: 5aa0 eebc faeb 3ebc 8812 0cbd 9032 943b
00000380: 76f6 9abc 002d 32bc 8b21 9abc 5cbe debc
00000390: f2d9 26bd 5c20 d6bc bed1 bebc 726b 19bd
000003a0: cc62 c7bc 9025 aa3b 84ce d93c af4f 98bc
000003b0: 18f2 903c a8e7 4b3c b83a aa3c 407c 8aba
000003c0: f84b 773c b09a 86bb 165d 79bc 2434 dbbc
000003d0: 5610 91bc b4cb 923c ccdf e4bc 00e2 903a
000003e0: b01a 09bb b81c 6f3c e625 0f3d 6896 ef3b
000003f0: 718b c5bc dc0d 01bc 3685 ad3c 58c5 fa3c
0.021191865 -0.014340097 0.01603463 0.003604576 0.030066364 -0.03570499 -0.022166742 -0.02509464
-0.022297954 0.0026374497 0.025012523 0.035598338 0.03433487 0.036033392 0.0023603067 -0.011455674
0.034738347 0.015716273 0.040537134 -0.02805978 0.029194407 -0.008604366 -0.030764991 0.013750598
0.023941435 0.026660845 0.03304471 -0.0047090426 -0.033215214 0.012850981 0.0054075457 0.0025558062
-0.025208516 -0.01783075 -0.03237673 0.028776363 -0.007644657 -0.00048153102 0.036729127 0.011871941
-0.008185826 -0.021158474 -0.03360457 0.013955891 -0.015532587 0.007667184 -0.015747603 0.009135369
0.01853593 -0.011628794 -0.008328386 0.019959833 0.03990136 -0.036822945 -0.030191548 -0.03546076
0.017149113 0.029063776 -0.034643803 0.005954381 0.0052610785 0.025449775 0.03194087 -0.024013154
0.0025936142 0.015263353 -0.019237706 0.01921362 -0.0066286214 0.0027446933 0.03190022 0.028561153
0.017249431 0.034394056 0.03455157 0.024152674 0.024750091 -0.03876439 -0.009022798 -0.0044048317
0.022813573 0.03661847 -0.036081355 0.03938079 -0.020631358 0.019698158 -0.019185988 0.02599778
0.03145106 0.028072886 -0.024682438 -0.03817852 0.032851055 -0.013858166 0.022181518 -0.0025692023
-0.008394938 -0.0061886236 -0.011862487 0.001559101 -0.029446078 -0.014113665 -0.039244264 0.021599919
0.010627221 -0.0137780085 0.03484994 -0.00010811165 0.016157802 -0.021639278 0.022753678 -0.013772257
0.008320697 -0.031560954 -0.0391928 0.0033135265 0.028920576 0.039370365 -0.02202332 0.03664028
-0.03984107 -0.030323677 0.022506885 -0.017066678 0.027667917 -0.030582108 0.0012580566 0.02075354
-0.019924274 0.011251867 0.010531146 -0.022100335 -0.00065767765 -0.025515134 -0.0017476045 0.038282044
-0.034215845 -0.04030109 -0.034502428 0.015316196 -0.01768125 -0.014488947 0.01953055 -0.02013722
-0.02430313 -0.0027051717 0.025670491 -0.009559445 -0.03520789 -0.006580323 0.012363005 -0.023667498
0.03787484 -0.026743876 0.010695413 -0.030635698 0.0041824766 0.036419325 0.028311133 -0.0039503537
0.012126595 -0.013718568 -0.01632001 0.033721402 -0.03797923 0.02783852 0.014690973 -0.028556503
-0.015966792 -0.039095547 0.010701459 0.007662177 0.028095677 0.03697508 0.026495926 0.040511504
-0.00341817 -0.026011484 -0.033647165 -0.01997231 0.030995019 0.014584549 0.039093316 -0.027044907
0.024360605 -0.024240047 -0.027501471 -0.020580806 0.04043287 0.0066410527 0.03830164 0.017124958
0.0032740347 -0.017469052 -0.005839344 -0.0010097064 -0.01384172 0.030458085 0.03900239 -0.013915768
0.03936161 0.018319637 0.03988392 0.020599324 -0.034734063 0.035376705 0.019931816 -0.029622493
-0.032640103 0.02527681 -0.029925035 -0.011572426 -0.029501386 -0.026446957 0.03893505 -0.0044948757
0.021746866 0.03534244 0.026032217 -0.012856081 -0.029129196 -0.011652941 -0.03419736 0.004522629
-0.01891635 -0.010874987 -0.018814823 -0.02719038 -0.040735193 -0.026138477 -0.023293372 -0.037455983
-0.024339102 0.005192466 0.026587732 -0.018592684 0.017693564 0.012445368 0.020779952 -0.0010565594
0.015093796 -0.0041077957 -0.015219947 -0.026758261 -0.017707985 0.017919399 -0.027938746 0.0011053681
-0.0020920448 0.014594249 0.034948252 0.007311631 -0.024114342 -0.0078768395 0.021181684 0.030611679

linear1.bias f4 [120]
00000000: c4a5 febc 3239 223d dab8 123d 78a9 0e3d
00000010: 39b9 07bd 0079 8539 1047 0e3b 50c8 bf3c
00000020: 809c fb39 348c d93c 4843 12bd 44be 1e3d
00000030: 32f9 053d 0e8d 88bc 2e2d 173d dc74 e0bc
00000040: 08fd 843b 4cba 4f3c b014 0a3d e898 eebb
00000050: 417f c5bc 186f 1b3d 1863 e2bb 72f4 9e3c
00000060: e8f7 efbc acee 0cbd fa1c 47bc 004c f03b
00000070: b0ed 8e3b d4d2 5ebc b20c 5bbc d8ad 57bc
00000080: a093 14bc fb65 b4bc 8827 883b 143d f13c
00000090: 30ac 20bd f459 793c 60f9 3abb c4ff c93c
000000a0: 6038 0abb 1863 a33b 08c3 1d3d fe85 07bd
000000b0: 006c fb3c 1ccf 183d c8e6 173d 78b8 22bd
000000c0: 9413 b63c 2f46 14bd 82f5 26bc c0a9 5f3b
000000d0: 684b 90bb c098 863c 80d8 88ba 401b 203a
000000e0: c0ed c53c 3036 de3b e81c 78bc 9c61 463c
000000f0: e677 55bc c867 223d 0f23 e2bc ac73 003d
00000100: eeef 103d f6a9 03bd 8466 07bd 4dc4 19bd
00000110: f817 e73c c074 c73c b03c f93c e0e5 c83c
00000120: 20ac 963c 20f2 cf3c 8c43 ff3c 0c33 7e3c
00000130: 0464 06bc 9074 6bbc e238 933c 2482 233d
00000140: 1ece 013d c2db 9abc 1568 88bc c21a 243d
00000150: 346a df3c a819 e5bc 3cbb 7cbc c417 5d3c
00000160: d8b0 dc3c 809f 21ba 28df 8d3c 744e 173d
00000170: ec9b cdbc 3e3b 15bd 94e2 3d3c 644c 153c
00000180: 8499 233d b4f3 a33c 6ea3 263d 4867 20bd
00000190: d0d2 2bbb d060 4c3b 34c1 293c d2fd 143d
000001a0: 6fa7 15bd 8c09 bb3c c0fa f3ba 34f1 08bc
000001b0: 00f8 353a dcd3 b03c c029 813c a76f e9bc
000001c0: 64ab d7bc 7438 f43c c021 e03a 801e cb39
000001d0: 486a b33c f613 87bc b0ed 00bd 1230 f9bc
-0.031084903 0.039605327 0.03582082 0.034829587 -0.033135626 0.0002545789 0.0021709837 0.023410946
0.00047991052 0.026556112 -0.035708696 0.03875567 0.032708354 -0.016668823 0.03690832 -0.027399473
0.004058484 0.012678694 0.033711135 -0.0072814114 -0.024108531 0.037947744 -0.0069087856 0.01940367
-0.029293016 -0.034407303 -0.012152905 0.0073332787 0.0043618307 -0.01360007 -0.013369726 -0.013164006
-0.0090684 -0.022021284 0.004155103 0.02944807 -0.03922671 0.0152192 -0.0028529987 0.024658091
-0.002109073 0.004986178 0.038516074 -0.03308677 0.030691147 0.03730689 0.037085325 -0.039726704
0.022226132 -0.036199745 -0.01019037 0.0034128278 -0.0044035204 0.016430259 -0.0010440499 0.0006107576
0.02416122 0.006781362 -0.015143611 0.012108233 -0.013029074 0.039649755 -0.027604608 0.031360313
0.035385065 -0.03214451 -0.03305675 -0.037540723 0.028209671 0.024347663 0.030424446 0.024523675
0.018392622 0.025384009 0.031160139 0.0155151 -0.0082025565 -0.014371052 0.01797146 0.039919034
0.03169071 -0.018903617 -0.016651193 0.04006458 0.027272321 -0.027966335 -0.0154254995 0.013494436
0.026939794 -0.000616543 0.017318323 0.036940053 -0.025098763 -0.03643345 0.011589665 0.009112451
0.039941326 0.020013668 0.040683202 -0.039160997 -0.0026218183 0.0031185634 0.010361005 0.036374874
-0.03653663 0.0228317 -0.0018614158 -0.008358289 0.0006941557 0.021585397 0.015766978 -0.028495623
-0.026326843 0.029812075 0.0017099902 0.00038741902 0.021901265 -0.01648901 -0.031476676 -0.03041843

linear2.weight f4 [84, 120]
00000000: fc17 a4bc c6db 023d 4a47 a83d a0e6 59bb
00000010: e488 9dbd 3c85 a2bd 283d a13d 855b 66bd
00000020: 622d 883d 6506 acbd 22ae ad3d 717a 4abd
00000030: 40b3 1c3b f090 753c 3c54 f83c 0030 55bb
00000040: 74e2 5e3d 595e 23bd 30cf d3bc 3688 abbd
00000050: 344f 93bd 28af 74bc d4f1 a63d c098 903b
00000060: 04f7 863c 5e21 a53d 972b 54bd a873 bcbc
00000070: 1820 423d b2a9 9e3d 40f5 113d db11 64bd
00000080: 5056 aabb 6899 553d e03e bd3b 2001 98bd
00000090: 9431 b1bd f415 a73c 7066 fc3c 8078 533c
000000a0: 4e25 23bd 0011 dfbc 7005 833c e8f8 9d3c
000000b0: 9b26 26bd 2adc afbd 8445 973c 5950 39bd
000000c0: 9c02 903d 20df bcbc 9900 a4bd 6c3f e2bc
000000d0: 4c1c aabc 3efc ad3d 00ff a7bb 18f5 ab3d
000000e0: 1042 033d 909b 553d a840 a83c 50b4 cabb
000000f0: f011 683d 18f7 83bc e727 acbd c4d6 8f3c
00000100: 7438 ee3c 44b0 ab3d a28a 18bd a86e bc3c
00000110: 801b d43c e8c7 22bc 20ea 023c c033 193c
00000120: 3c1e 1e3d e03c 51bb a492 96bd 0fcf 28bd
00000130: fe28 60bd 5452 37bd 171b 88bd 0039 713a
00000140: bc19 6abd 2c39 8ebd acbf bf3c b626 a53d
00000150: 6a26 81bd ba12 b4bd 6765 2bbd 9a69 8c3d
00000160: 1b37 5fbd b13e 8dbd e499 43bd 52ba 3fbd
00000170: 4027 87ba 7c5f f9bc b816 4e3d 6e11 013d
00000180: 8487 4c3d d2e5 953d cbd1 32bd c076 d33a
00000190: 1f8e 14bd 4443 2c3d 7868 163c 707a 673d
000001a0: 20e4 e3bb 9ea7 ecbc f895 303d 12c9 a2bd
000001b0: 5087 a7bd 905a c53c fdf7 a1bd 18c4 583d
000001c0: a838 293d d7af 6cbd 88b2 893d b0fd 79bc
000001d0: bf40 9bbd 1c20 b4bd ec0f 283d 1a94 09bd
000001e0: ac2a b2bd fb61 6bbd 04dd 833d 548d 493d
000001f0: b8f5 7d3c 0e33 ae3d 34ae 89bd d034 cc3b
00000200: d801 7d3d b2bd 6cbd a085 a8bb ca84 813d
00000210: 94d7 9e3c d055 a93d 68fb 8cbd dc1d 5c3d
00000220: d061 483c b7d7 a8bd be1e aa3d 5ad7 b0bd
00000230: 3c53 b6bd 8274 88bd 50f3 863d 86f7 77bd
00000240: 1011 473c 3807 79bd 20f4 15bc dbeb a3bd
00000250: b8fa 1b3d cc3d 6c3d b459 94bd f8c0 703c
00000260: 0c45 d53c 8242 913d a781 acbd 62b6 62bd
00000270: 008e 133c c2ed b53d 4077 4d3d 388d eb3c
00000280: 8fef b3bd 082c 5c3c 702c 723d 4a1d b23d
00000290: 48dc 333c 8025 5dba 589c e63c c85f ca3c
000002a0: d84d 133c 70d8 efbb 60b1 093c 7047 713c
000002b0: 701d 3d3c 38a9 a53c 0629 893d b013 71bc
000002c0: 96b5 9a3d 5ec1 b7bd f8aa 43bc d197 64bd
000002d0: b0e8 ebbb e25f 6bbd b2e9 b33d 45bd 1abd
000002e0: b068 043d dbf5 1ebd 8bbd 41bd 8ca0 32bd
000002f0: fd14 0bbd e277 a8bd 6953 48bd 6093 8ebd
00000300: c4b7 20bd 608a 7fbd 84c1 623d 7038 55bc
00000310: f3af 63bd 9520 74bd 8d49 25bd c030 ef3b
00000320: 44b0 98bd 74bf 65bd 8abe 5bbd a06f 073c
00000330: c460 303d 9195 63bd 0404 5b3d 4024 8eba
00000340: 8e0a 76bd b5fa 8bbd 5cdd 393d 60b3 383b
00000350: e8a3 09bc 4060 303b ca1d 903d 1c05 9f3d
00000360: 180a 06bc 8541 90bd dafe 8ebd c041 d2bc
00000370: 22dc a13d 8cb3 1ebd 2df4 67bd 3ea2 833d
00000380: cf3e a3bd 24c1 9dbc ec8b 863c 8480 b33d
00000390: 30d3 debb 7c83 ad3c 3596 8bbd 404f 923c
000003a0: c8d6 c23c 5e3b a3bd 6869 a63d 963f b83d
000003b0: 483d 82bc aac8 00bd 8e18 b0bd 3cf3 5c3d
000003c0: fce5 c8bc eadd ae3d c1c1 91bd ff20 b2bd
000003d0: 69fa 29bd 9625 8b3d d0c2 d1bb 9060 12bc
000003e0: dff4 4bbd 0cb9 743d 58aa 973c d342 49bd
000003f0: 1d2e 9cbd d06b a43c 5fc5 0cbd ea23 b7bd
-0.020030968 0.031947874 0.08216722 -0.0033249035 -0.076921254 -0.07935569 0.07872993 -0.056239624
0.06649281 -0.08399657 0.08480479 -0.049433175 0.0023910552 0.014988169 0.030313604 -0.003252983
0.05441518 -0.0398849 -0.02585563 -0.083755895 -0.07192841 -0.014934339 0.08151594 0.0044127405
0.016475208 0.08063005 -0.051799383 -0.023004368 0.04739389 0.077472106 0.03563428 -0.05568109
-0.0051982775 0.052148253 0.0057753175 -0.074220896 -0.086520344 0.02039621 0.030810565 0.012907147
-0.0398305 -0.027229786 0.015993804 0.019283727 -0.04056416 -0.08586915 0.018465765 -0.04524264
0.07031748 -0.023055613 -0.080079265 -0.027618133 -0.020765446 0.08495377 -0.005126834 0.08396357
0.032045424 0.05215031 0.020538643 -0.0061860457 0.05665773 -0.016109034 -0.08406048 0.017558463
0.029079653 0.083832294 -0.037241586 0.023001984 0.02589202 -0.009935357 0.00799039 0.009350717
0.038603052 -0.0031927153 -0.07352188 -0.04121309 -0.054726593 -0.04475625 -0.06645792 0.0009201914
-0.05715345 -0.069444984 0.023406826 0.08064024 -0.06306155 -0.08792634 -0.04184475 0.068560794
-0.054495912 -0.06896723 -0.047754183 -0.04680855 -0.001031138 -0.030441038 0.050314635 0.031510763
0.049933925 0.07319225 -0.043657105 0.0016133413 -0.03626835 0.042056337 0.009180181 0.05651325
-0.006954685 -0.02888852 0.04311177 -0.07948507 -0.08180106 0.024091035 -0.07908628 0.052921385
0.041313797 -0.05778488 0.06723505 -0.015258238 -0.07580709 -0.08795187 0.04103081 -0.033588506
-0.08699545 -0.05746649 0.0643864 0.049207047 0.015500478 0.08505832 -0.0672268 0.0062318817
0.061769336 -0.057798095 -0.0051428825 0.06324156 0.019389905 0.082683206 -0.068838894 0.053739414
0.012230352 -0.08244269 0.08306645 -0.08634825 -0.089025944 -0.06662847 0.06589377 -0.06053879
0.012150064 -0.0607979 -0.009152442 -0.0800397 0.0380809 0.05767612 -0.07243672 0.014694445
0.0260339 0.070927635 -0.08423167 -0.055349715 0.009006023 0.08883239 0.050162554 0.028753862
-0.087859266 0.013438232 0.05912441 0.08696993 0.010977812 -0.0008436069 0.028150722 0.024703875
0.008990727 -0.0073195025 0.008404106 0.014726505 0.011542663 0.020222291 0.06697278 -0.0147141665
0.07554166 -0.08972429 -0.011942618 -0.055808846 -0.0071993694 -0.057464488 0.08784808 -0.037778158
0.0323264 -0.038808685 -0.047299903 -0.04361014 -0.033955563 -0.08225991 -0.04890767 -0.06961703
-0.039237753 -0.062387824 0.055360332 -0.013013944 -0.05558772 -0.059601385 -0.040353347 0.0072995126
-0.07455495 -0.056090787 -0.05364851 0.00826636 0.043061033 -0.05556256 0.053470626 -0.0010844544
-0.06006866 -0.06834928 0.04537712 0.0028183088 -0.008400895 0.0026912838 0.07036932 0.077646464
-0.0081811175 -0.07043747 -0.06982203 -0.025666118 0.07903315 -0.038745448 -0.05662935 0.064274296
-0.07970964 -0.019257136 0.016424142 0.08764747 -0.006800078 0.02118086 -0.06815759 0.017860055
0.023784056 -0.07970308 0.081255734 0.08996503 -0.015898362 -0.03144137 -0.085984334 0.053942904
-0.024523728 0.085384205 -0.07117034 -0.086977 -0.041498575 0.06794278 -0.0064013973 -0.008934155
-0.049794074 0.059746787 0.018513843 -0.049135994 -0.07625983 0.02007094 -0.034367915 -0.08942397

linear2.bias f4 [84]
00000000: c020 273c 5844 d33c 9da7 a4bd 905a f33c
00000010: f0f2 613c 800c 8a3a 008b d93a 3096 93bb
00000020: 9847 dfbc 5c7d ce3c e1f1 6dbd 6496 8b3d
00000030: a06f 9c3c 909d e53c 52c3 843d b2bd 26bd
00000040: 6844 023c fe01 913d 5429 f0bc 07df afbd
00000050: 8ed4 983d d037 a3bb 0e35 953d 5af8 8a3d
00000060: 2a09 5ebd c44a ad3d 985b 613d a4e7 b8bc
00000070: 5486 aa3d c85f 52bc 94ae a53d c0b4 90bd
00000080: 480f b03d c011 db3b 42d3 8d3d 80c5 513a
00000090: 02ce b8bd 10b5 a13b 3b29 a7bd 18e8 88bd
000000a0: f7f3 98bd 80d0 5ebc 80ec f5bb f8d6 26bd
000000b0: a70a 27bd 095b b7bd 8cc6 76bd 0c28 b83c
000000c0: fcfc 9f3d 6d10 a2bd 3485 ae3d 3718 57bd
000000d0: db03 9cbd c0bf 45bb ecba 673d 6094 2a3d
000000e0: cc26 0b3d b20c a73d ea66 88bd 5c9b 99bc
000000f0: 408e 64bb 2058 fa3c d88b 473d 1880 79bd
00000100: c0ae 79bc fc8d 673d b2ca 8d3d b0b0 773c
00000110: a39d 47bd 4809 bcbc 84a9 b73d d09e a2bd
00000120: 1349 68bd 102b 823b d6f8 833d 7c51 543d
00000130: 802b fe3c 58c7 a03c f0dc 613d 20f3 a93b
00000140: d8c5 9d3d c42c 793d 0035 a2ba ae4c 48bd
0.010200679 0.025789425 -0.08039782 0.02970627 0.013790831 0.001053229 0.0016597211 -0.0045039877
-0.027255818 0.02520626 -0.058092 0.06815794 0.019096196 0.028029233 0.06482567 -0.04070825
0.00795088 0.07080458 -0.029316582 -0.08587461 0.074624166 -0.0049810186 0.0728551 0.067856506
-0.05420796 0.08461526 0.05501899 -0.022571392 0.08326402 -0.012840219 0.08089939 -0.07065725
0.08596665 0.0066854656 0.0692506 0.0008002147 -0.09023668 0.0049349144 -0.08162161 -0.06684893
-0.074684076 -0.013599515 -0.0075049996 -0.040732354 -0.040781643 -0.089529105 -0.060247943 0.022480033
0.07811925 -0.07913289 0.085215 -0.052513327 -0.07617923 -0.0030174106 0.056574747 0.041645408
0.033972546 0.08156718 -0.06660254 -0.018750839 -0.0034874827 0.0305596 0.04871735 -0.060913175
-0.015239418 0.05653189 0.06923427 0.015117809 -0.04873432 -0.022953644 0.089678794 -0.07940447
-0.056710314 0.0039724186 0.06443946 0.051835522 0.031026602 0.019626305 0.055142343 0.0051864535
0.07703751 0.060833707 -0.0012375414 -0.048901252
